reinforcement_learning/dqn_snake/linear_snake_parameters.pth (torch, 33216 bytes, 8 tensors)

layer1.weight f4 [64, 16]
00000000: 09a1 1cbe 1cfc 99be b23a a1be 17d6 ea3d
00000010: 7dd6 87bf 277e 91be 10ec 92be d73d 0ebf
00000020: 59a9 87be b0e5 5d3f 3c82 dbbe 2390 9b3e
00000030: cf06 02bf 2d63 56be 5ea0 043f 9a97 debd
00000040: 5c74 0bbf 8cc4 c1bf d83c 0740 993d 09c1
00000050: 345d 1d3b ea09 933d 0356 33bd 7eac bd3d
00000060: 3d21 223f a2b8 b73d 5a2b 01c0 2804 a440
00000070: 91c9 1f3e dde9 f23e 674d 683e 90b5 b33e
00000080: 3196 243f 0354 763e b8a2 98bf d745 89bf
00000090: 4ba8 073f 3a37 41bf 0450 6bbf 8fea 13bf
000000a0: 1ae2 b6be a772 31bf cf86 d03e f895 51bd
000000b0: e6ba cfbd b7a3 03bf c11b ad3e 93bb 753e
000000c0: 4c49 353f 649d 28c0 dc12 12bf 95e4 b23e
000000d0: b41e bbbe b9b2 de3c 022e fdbf 2351 8fbf
000000e0: cb8d 383f 7fd4 83bf 5f9b 1140 7eda 82bf
000000f0: e990 2b3f c339 ff3f 1170 e93e 3226 563e
00000100: f8e4 0dc0 d46a 8140 8c9e 17c0 9650 213e
00000110: faea 6abf cae2 4abe 0c80 c7bd 7138 b8bc
00000120: f6fe 98bf 887b ce3f 734c 2fc0 1588 5f3e
00000130: aae4 44c0 15d5 3f40 02b2 6ec0 da63 73c0
00000140: ccad 2fc0 cdce 47c0 107b 89c0 132c f0bc
00000150: 37ef 6d3f 4387 093d ba40 64be c25b 043f
00000160: fd0c 24c0 a589 a83d 8186 ab3f 3802 ecbe
00000170: 7a58 2440 4db5 1740 4ee2 0a40 0531 3b40
00000180: 501d 863e 3645 69c0 de29 7fc0 ece2 98bf
00000190: 96e6 bcbf eb38 1bc0 5613 85bf dab2 553f
000001a0: 0166 08c0 b2b3 02bf 9265 0440 540c 273f
000001b0: e1aa 1b40 4e87 6c40 0e3f 3240 795b 86bf
000001c0: 7aa0 06bf 191e 143f 9f82 93bf 1197 4fbf
000001d0: 4067 f0be 09a7 ebbe 9ebc 64bf 505d 5dbf
000001e0: d2e4 14bf 0201 60bf c9ca 0a3b 1c63 9e3e
000001f0: 551c f2bc 3f2e 893f b0d1 3d3e 3565 c43e
00000200: a40a 17bf a887 b1bd 9373 5bbe 218f e6be
00000210: 3a6b 40bf 18d1 9ebe bc17 32bf df71 c4be
00000220: 239d c9be b8e8 f2be 7847 07bf 6eb2 8e3f
00000230: 9fab 3abf 0636 743f 6e08 d6bd 9765 61bf
00000240: 7ba5 d0be 3d70 683f 2406 e7bf 7974 63bf
00000250: c493 eebf 3359 8bbf a73f 68bf 39ba 37bf
00000260: fb9c 46bf 1be3 993f c278 c3bd ca60 8dbf
00000270: d998 5abf 12fd b73f 2bd0 873e a40f 37bf
00000280: 1ff5 57bf c098 e73e e752 e5bd 421b dabd
00000290: 8a1d 463e a74c d5bf 047e 2ebf 2a70 31bf
000002a0: 560c cf3e 2c1e a5be e1f8 76bf 76ba 853e
000002b0: 7d99 813f c0cb c03e 54de 85be 0c96 f33e
000002c0: 11b3 43bf 63ba 40bf 5aef b2bd 140d 5abf
000002d0: b189 03be 792a 40bd 796f 06bf 2acc 94be
000002e0: 364a 5abe bf35 ca3e 1efa 0b3e 3d46 d5bd
000002f0: ba87 593e 2b30 21bf af76 a0be 6287 02be
00000300: 914d 1b3f 71a6 33bf 5874 17bf b0c7 08c0
00000310: f8de 2abf dba3 5abf b57a 2dbf c5b7 f1bf
00000320: 4dc2 e63f 9f8d 103f 3ba1 02bf 8a10 b4be
00000330: f38d 003f c449 17bf db1b 98be f185 0abf
00000340: 2982 203d 66df aabe 5842 93bf c08d 7bbf
00000350: cac7 bbbe c92a 2cbe ec0f 963d 30e1 63bf
00000360: a913 033f ce04 c33c e55b 49be 1b6c 6cbe
00000370: a1e5 013f 21b5 5b3e 8e5f 8dbe 3d33 40bf
00000380: 5c70 7ebf 9e5e 29bf 9672 f3bf bc7b 53c0
00000390: ef10 de3d b502 143e b9c2 3ebf 165a e7bf
000003a0: 2ffd c13f 9986 89be f3e8 01c0 d001 a53f
000003b0: 733a 103f 1428 1bbf 4a13 3fbf 158c 683f
000003c0: aaaa e7bf 35ef b1bf 27ab 26bf a992 b4bf
000003d0: b130 7bbf ecd9 d9be aeda 163f 91b3 09bf
000003e0: 6aa2 6d3f a25a 32bd 6c88 5abf f8dd 2a3d
000003f0: a68e 963e e302 1abd 7f32 8c3e 0cc8 89bf
-0.15295805 -0.30075157 -0.31490093 0.11466616 -1.0612332 -0.2841656 -0.28695726 -0.5556311
-0.2649639 0.866786 -0.42872798 0.30383405 -0.5079164 -0.2093627 0.518072 -0.108687595
-0.54474425 -1.5138106 2.1130886 -8.5775385 0.0024011852 0.07179625 -0.0437832 0.09261416
0.6333197 0.08970763 -2.018271 5.1255074 0.15604235 0.4744405 0.22685777 0.3509946
0.64291674 0.24055485 -1.1924658 -1.0724438 0.5299117 -0.75474894 -0.9191897 -0.57779783
-0.35719377 -0.6931557 0.4072785 -0.051168412 -0.1014307 -0.51421684 0.33810237 0.23997335
0.7081497 -2.6346064 -0.5706003 0.3494002 -0.36546862 0.027184831 -1.9779665 -1.1196636
0.7209136 -1.0299224 2.275108 -1.0222929 0.6701799 1.9939502 0.45593312 0.20913008
-2.2171001 4.0442905 -2.369052 0.15753397 -0.91764796 -0.19813076 -0.0974122 -0.02248785
-1.1952808 1.6131449 -2.739041 0.21829255 -3.0764565 2.9973805 -3.7296147 -3.8029695
-2.7449827 -3.121997 -4.2962723 -0.029317891 0.9294314 0.03357626 -0.22290316 0.5170251
-2.5632927 0.082293786 1.3400422 -0.46095443 2.5679002 2.3704407 2.1700625 2.924867
0.2619424 -3.6448493 -3.9869304 -1.1944251 -1.4757869 -2.425349 -1.0396526 0.8347603
-2.1312258 -0.51055443 2.0686994 0.65253186 2.4323046 3.6957583 2.7850986 -1.0496665
-0.5258862 0.57858425 -1.1524237 -0.81089884 -0.46953773 -0.46025875 -0.89350307 -0.8647051
-0.5816165 -0.8750154 0.0021177998 0.3093499 -0.029554525 1.0717238 0.1853702 0.38358465
-0.5900061 -0.086684525 -0.21430807 -0.45031074 -0.75163615 -0.310189 -0.69567466 -0.38368127
-0.39377698 -0.47443175 -0.5284343 1.1148202 -0.72918123 0.95394933 -0.104508266 -0.8804564
-0.40751252 0.9079626 -1.8048749 -0.888496 -1.8638844 -1.0886596 -0.90722126 -0.7176853
-0.77583283 1.2022432 -0.09544517 -1.1045163 -0.85389477 1.4374106 0.26526007 -0.7150824
-0.843584 0.45233727 -0.11197453 -0.1064973 0.19347206 -1.6664017 -0.68161035 -0.69311774
0.404391 -0.32249582 -0.9647351 0.2611882 1.0124966 0.3765545 -0.26146185 0.47575414
-0.7644511 -0.75284404 -0.08737059 -0.85176206 -0.12845494 -0.046915505 -0.52513844 -0.29062015
-0.21317372 0.3949413 0.13669631 -0.104137875 0.21243182 -0.62964123 -0.31340548 -0.12746957
0.6066523 -0.70175844 -0.591619 -2.137188 -0.66746473 -0.85406274 -0.6776536 -1.8884207
1.8028046 0.56466097 -0.5102727 -0.35168868 0.502166 -0.5909693 -0.29708752 -0.5411063
0.03918663 -0.33373564 -1.1504622 -0.9826317 -0.36675864 -0.16813196 0.073272556 -0.89015484
0.51201874 0.023806002 -0.19663961 -0.23088114 0.5074101 0.21455814 -0.27611965 -0.75078183
-0.99390197 -0.6616 -1.9019344 -3.3044271 0.108430736 0.14454158 -0.74515873 -1.8074367
1.515539 -0.26860502 -2.029843 1.2891178 0.56339186 -0.6060803 -0.7463881 0.9083875
-1.8098958 -1.3901125 -0.6510491 -1.4107257 -0.9812117 -0.42549074 0.5892743 -0.5378962
0.9282595 -0.043543465 -0.85364413 0.041715592 0.29405707 -0.03760041 0.27382275 -1.0764174

layer1.bias f4 [64]
00000000: acae 80bf e4ef a03e b22e ccbf f785 81c0
00000010: bdc8 afbf 843f a0bf 569d b7c0 25c0 cbbf
00000020: a8fb a8bf 64ec 0fc0 808b dbbf 2cbb c7be
00000030: b32b 04c0 94f3 65bf 9074 22c0 a977 62bf
00000040: faea 25bf 9100 00bf 722c 49c0 b102 a7c0
00000050: 9ca5 b1bf df24 babf 40d3 95c0 de95 b0bf
00000060: 557c b6bf b008 18c0 6edd 8bbf 4eb4 38c0
00000070: fbbe 17c0 71ef 8f3f bb6b 93bf 918e 72c0
00000080: b18a 08c0 a4ac 5cc0 14c9 81bf 7561 5bc0
00000090: 9883 69bf 674a aabf b91e d1be f4e6 24bf
000000a0: 1e88 65c0 ecdb 41c0 7fa2 49bf 1138 16c0
000000b0: 6eec b0be 89a5 aebf c5e3 95bf 7af5 44bf
000000c0: e586 3ebf 550f 70c0 6eca 6bbf b391 8bbf
000000d0: a997 f1bf d657 c9bf 59fd 5ebf 3819 15c0
000000e0: d88f d2bf b5de 65bf 3ffe 62bf 9cd7 b3bf
000000f0: 3a0f 39be 3b71 3e40 5bbd fdbe a45d 9ebf
-1.0053306 0.31433022 -1.595175 -4.047603 -1.3733135 -1.2519383 -5.737956 -1.5918013
-1.3201799 -2.2488031 -1.7151947 -0.39009988 -2.0651672 -0.89824796 -2.5383644 -0.88463837
-0.6481167 -0.50000864 -3.1433377 -5.2190785 -1.3878665 -1.4542502 -4.6820374 -1.3795736
-1.4256693 -2.3755302 -1.092695 -2.886005 -2.3710315 1.1244947 -1.1517252 -3.7899516
-2.133465 -3.4480371 -1.0139489 -3.4278233 -0.9121642 -1.3303956 -0.40843752 -0.64414907
-3.586433 -3.029048 -0.78763574 -2.347172 -0.34555382 -1.3644267 -1.1710135 -0.7693707
-0.7442458 -3.7509358 -0.9210576 -1.0903839 -1.8874408 -1.572993 -0.8710533 -2.3296642
-1.6450148 -0.8979295 -0.886692 -1.4050174 -0.18072215 2.975661 -0.4955853 -1.2372327

layer2.weight f4 [64, 64]
00000000: b098 b33d 3559 cfbf f9bc e9bf 1a25 103e
00000010: f517 10c0 18bb 5ac0 ad27 0bc0 0705 0c40
00000020: 561d a83e 3f7c 37c0 4bb6 ccbf 3bdf ba3d
00000030: a0ea 273d 70d8 59bf 18ef f93f 2886 b93f
00000040: 925e 993f 4c4e bdbd ae58 5dc0 3d00 343f
00000050: 0b9f bd3f 2cc0 183f 2d32 76c0 a1ee 1940
00000060: 4ee4 3fbf d7a4 f0bf de6d 94be a4bc 9bbf
00000070: dc34 55be 735f c8bf 0a88 d93e 4b0a 2bc0
00000080: e901 513e dbe8 8a3f 2bde 09be 481b a93f
00000090: cf5e 793f 2cc5 e3bf f423 25be 8600 9dbf
000000a0: 596f 3cc0 fa36 0240 6664 47be 913d 86bf
000000b0: 7303 52bf e3ff 5f40 e3f8 833f f2c6 c63f
000000c0: 02bb 81be a72c 72c0 b687 46bf b434 3cbf
000000d0: e7f9 0bbf 8591 5d3f 7a76 d8be ffd8 723f
000000e0: 4bd6 ad3f 7e53 cabf 75f2 4a3f 3e5a 923e
000000f0: 1d5b cc3e e102 acc0 30ab 1cbe aa94 abbf
00000100: d78b 503e 0e91 92c0 3818 a2bf 30c1 173f
00000110: 21da a4c0 1950 5a3f 0fdb b440 4382 393e
00000120: 0523 853f c6ad cbbf 82d4 bcbf 62f6 543f
00000130: 7f3f 503e 8410 56bf 9d8d 69bf 0a50 ccbf
00000140: 70fd ea3d a09d e03e 9ad0 7cbf b2b8 32c0
00000150: 49fe fc3c ad46 2c3f cf05 e03f 65fc 63bf
00000160: 432e 863c f252 293e a6f7 51bd 2268 a13f
00000170: 804b 663e 0a83 6abf 1089 fcbe a0ab 80c0
00000180: 176e 0040 8ae7 9b3f 0d89 de3e cb36 5f40
00000190: 6e77 513e 4cfa 17bf fffa 2cbf a5da 1fbd
000001a0: cba1 9cc0 5adb 5dbf e0a4 a43e 077d e8be
000001b0: 7c42 88bf 6bcb 373f 274a f73d 5185 d83e
000001c0: f745 e7bd 7465 4fc0 38af 2ebe 2d01 853f
000001d0: b9f2 723d 8288 f1be 1882 983b 28a3 25bf
000001e0: 9e9f 3fbf 8814 b1be e39b cebe f5c1 f7be
000001f0: c7d3 ef3d c722 fabf 343f edbf d227 a33c
00000200: 7f67 593e 6f7f 3cc0 3006 21bf c0e9 6140
00000210: ae7f 81be 971b e73f cbbe 68c0 9040 2a40
00000220: 9ad2 8dbd 57df c23f bd65 533f 3be3 5fbd
00000230: 01ff 7ac0 6b59 8cc0 fcf2 27c0 9875 b4bf
00000240: 2adf 3fbd 98fc 463f 35b7 d3be f8a7 333f
00000250: 40c0 abbf 0234 b1bf af7c 25bf e890 b03e
00000260: d12c a63f 3154 09c0 4914 3c3f d9ee 61c0
00000270: 731d 92bf cc63 e9bf 859e a6bf 4d16 dfbf
00000280: 5b33 2b3d 658a 1ac0 19e7 0dbf 0f0d 7abf
00000290: e6fc 85bf cbbc 32be ca80 87be dfac d6bd
000002a0: 9264 4640 e9bb 82bf 5eb2 ebbe 856e 0abe
000002b0: 33d0 123f 0d24 10c0 e749 a2bf a063 f1bf
000002c0: 8615 c2bf 28d8 24c0 b18a a43f 51ad 5d3e
000002d0: 5457 1b3f dc0b 73bf af15 78c0 d09d debf
000002e0: 2096 59bf 9edf 0ec0 e76a e2be 4c85 a13d
000002f0: cd19 12be 4ea0 32bf 1b0a 0c3f 874a 473f
00000300: c881 40be c8b6 1bc0 c3bb 49be 9095 883f
00000310: 7e0d 8ac0 3981 c53f 71c9 1141 7d0e aa3f
00000320: 57fe b3bd 260f bcbf 9d37 bfbe 8719 733c
00000330: 33fd e53e df3e 08bd 0d3c 5ec0 8739 82be
00000340: 4a6d b13c cbb3 e9bc ccea 893f e7fd 643f
00000350: b712 44bf af06 1dbf 49fa 2640 469e 53bd
00000360: 7c41 76c0 2131 f1be 8d07 c6bd cc4d 96c0
00000370: b4f2 0cc0 6be9 d8bf 887c 1ebe 480d ffbf
00000380: c693 96c0 60cf 643f 5bd4 92bd be78 27c0
00000390: c457 1fbe 22cd 8a3f 1376 413d fe8c 703d
000003a0: e50a b23f 9615 ad3f 9cb4 cfbc 4ed8 433e
000003b0: 0fef 57bc d7e7 0fc0 8f56 2fbe a9cb efbf
000003c0: d920 0a3f 38f1 243e 62e3 873e d049 a3bd
000003d0: f368 b53e ea97 78be a705 15bd 0d00 c6bf
000003e0: 5841 da3e 6aaf 573d 7998 1cbd 11a0 923e
000003f0: 5d6e 8bbd ab1b afc0 9163 22bd daee 9fbd
0.08769357 -1.6199099 -1.8260795 0.14076653 -2.2514622 -3.4176693 -2.1742966 2.1878068
0.32834882 -2.8669584 -1.5993131 0.09124609 0.04099524 -0.8509588 1.9526091 1.4494066
1.1981986 -0.092434496 -3.4585376 0.70312864 1.4814161 0.5966823 -3.8468125 2.4051898
-0.7495774 -1.8800305 -0.28990072 -1.2166944 -0.20820946 -1.5654129 0.42486602 -2.6725032
0.20410885 1.0852312 -0.13463657 1.321145 0.9741029 -1.7794547 -0.16126996 -1.2265785
-2.9442961 2.0346055 -0.19471893 -1.0487539 -0.82036513 3.499993 1.0310329 1.5529463
-0.25337988 -3.7839754 -0.7755083 -0.7351792 -0.54678196 0.8655017 -0.4227789 0.9486236
1.3581022 -1.580673 0.7927621 0.28584474 0.39913264 -5.3753514 -0.15299678 -1.3404744
0.20365845 -4.580207 -1.2663641 0.59279156 -5.151627 0.8527847 5.6517406 0.18116097
1.0401312 -1.5912406 -1.4752352 0.8318845 0.20336722 -0.8361895 -0.9123171 -1.5961926
0.114741206 0.43870258 -0.987558 -2.792523 0.030882971 0.6729534 1.7501773 -0.89057
0.016379481 0.16535547 -0.051261567 1.2609904 0.22489738 -0.916062 -0.4932332 -4.0209503
2.0067194 1.2180035 0.43463936 3.4877193 0.20455715 -0.593663 -0.6757049 -0.039026875
-4.89475 -0.8666283 0.3215704 -0.45407888 -1.064529 0.71794766 0.1207469 0.42289212
-0.112926416 -3.2405672 -0.17059028 1.0390984 0.05931351 -0.4717446 0.0046541803 -0.6470208
-0.7485293 -0.34585977 -0.40353307 -0.48390165 0.11710315 -1.9541863 -1.8534913 0.019916449
0.21230887 -2.945278 -0.62900066 3.529892 -0.25292724 1.8055295 -3.636645 2.6601906
-0.06924935 1.5224408 0.82577115 -0.054660063 -3.9218142 -4.3859153 -2.6242056 -1.4098387
-0.046843685 0.7772918 -0.41350713 0.70178175 -1.3418045 -1.3843997 -0.6464338 0.34485555
1.2982427 -2.1457636 0.7346845 -3.530203 -1.1415237 -1.823358 -1.3017126 -1.7428681
0.041797023 -2.414697 -0.5543075 -0.97676176 -1.0467803 -0.17454831 -0.26465446 -0.10482191
3.0998883 -1.0213596 -0.4603452 -0.13518722 0.57348937 -2.2522004 -1.2678803 -1.8858528
-1.5162818 -2.5756931 1.2854825 0.21648146 0.6068013 -0.9493997 -3.8763235 -1.739191
-0.849947 -2.2323985 -0.44222185 0.078867525 -0.14267655 -0.69775856 0.5470292 0.77848095
-0.18799508 -2.433031 -0.19700532 1.0670643 -4.314147 1.5430061 9.11168 1.3285671
-0.08788746 -1.4692123 -0.37347117 0.014837629 0.44919738 -0.033263084 -3.4724152 -0.25434515
0.021658558 -0.028528115 1.0774779 0.89449924 -0.76591057 -0.61338323 2.6090262 -0.051664613
-3.8477468 -0.47107795 -0.09669409 -4.6969967 -2.2023134 -1.6946234 -0.15477192 -1.9925928
-4.7055387 0.8937893 -0.0716941 -2.6167445 -0.15560824 1.0843852 0.047231745 0.05872821
1.3909575 1.3522213 -0.025354676 0.19125482 -0.013179555 -2.2485254 -0.17122863 -1.8734027
0.5395637 0.16107643 0.26540667 -0.07973063 0.35431632 -0.242767 -0.036382344 -1.5468765
0.42627978 0.052657522 -0.038231347 0.28637746 -0.068081595 -5.4721274 -0.039645735 -0.07809229

layer2.bias f4 [64]
00000000: 0334 c93f 627b 64c0 c00e eabf 98dc bfbf
00000010: 8a0b 2bbe 88c9 eb3e 19d5 70bf 5faf 0f40
00000020: 1d27 80bf debc 4cc0 8293 36c0 2db6 37bf
00000030: 3e21 28bf 182c 3440 f0b2 6fbe 5730 213f
00000040: 51ba d7bf 6f8d 933f a609 ecbe 9270 14c0
00000050: fd11 ffbf b2de 4cc0 4839 31bf 2c35 933f
00000060: d915 173d d82a f43c fef5 47bf ef6f d03f
00000070: d22d 92bf a25f a5be df1e 0e40 1c56 a1bf
00000080: b272 51c0 eed8 e83f 639d 6cbf cfc4 03be
00000090: b5fa 24c0 b981 70bf a6b8 e1be 6a35 113f
000000a0: 913a 66c0 fc98 b4bf 07e4 3140 82b1 18c0
000000b0: 565d 463e 3dc4 e0bf d64a 41be 2b6d 15c0
000000c0: d9fa 80bf a30c bdc0 cb9d 5c40 3021 5fc0
000000d0: 4665 34be f5ff 8abe 5dcb f9bf 5425 dcbe
000000e0: 74ef 4bbe f3f3 e33f b693 85c0 719d dfbd
000000f0: 2642 01c0 f645 74bf ed31 06be d5e4 c3bf
1.5718998 -3.5700307 -1.8285751 -1.4989195 -0.1670362 0.46052194 -0.9407516 2.2450788
-1.0011936 -3.1990275 -2.8527532 -0.71762353 -0.65675724 2.8151913 -0.23408103 0.62964386
-1.6853734 1.1527537 -0.4610111 -2.3193707 -1.9927365 -3.2010922 -0.6922803 1.1500602
0.03688607 0.029805586 -0.7810973 1.628416 -1.1420233 -0.32299525 2.2206342 -1.2604403
-3.2726254 1.8191202 -0.92427653 -0.12868045 -2.577802 -0.9394794 -0.44086188 0.5672213
-3.5973246 -1.4109187 2.7795427 -2.3858342 0.19371542 -1.7559887 -0.18876204 -2.334788
-1.0076553 -5.9077926 3.447131 -3.4864006 -0.17616758 -0.27148405 -1.9515187 -0.4299723
-0.19915563 1.7808822 -4.174281 -0.109187014 -2.0196624 -0.9541925 -0.13104983 -1.5304209

layer3.weight f4 [32, 64]
00000000: ae4b be40 e8a0 1bc0 9993 b5bf b0aa f2bf
00000010: f6aa 33c0 2c56 e2bf d25a f5bf 59fe 39c0
00000020: 4af5 debf bc73 8abf 88f3 25bf b1c8 3d40
00000030: 7547 a03e 2b42 bfbf 32b4 48bf b6db 30bf
00000040: f0f9 80bf 24a5 9b3e eade 86be feda cdbe
00000050: d8c2 2ac0 3ae8 4bc0 3e20 d4bf 7aa0 d53f
00000060: 5851 f1bf 7d92 333f 9b0e c53f d596 75bf
00000070: 0a45 a03f 40da 1e40 5294 bd3f 0eb5 7abf
00000080: 3bc0 ebbf 69a5 743e e72c d13e e604 633f
00000090: 5b30 94c0 4c5f c6bd 5885 23bf 8162 96bf
000000a0: ad4e 32bf 2979 e9be 7dbc 0cbf 4f78 3040
000000b0: ce61 41be 92fc 1bbf 3243 0bbe df26 663f
000000c0: 34a8 4dbf b3b3 f1be 057b e3bf de3f f9be
000000d0: bd96 1bbe a123 383e 76bf 23bf 26c5 06be
000000e0: 7cd2 863d 4fe1 76c0 a610 fdbf 7d63 463f
000000f0: 2473 15c0 be4c a3be 17dc c23a 9632 57c0
00000100: df8a debf 4327 3640 b6d6 183e e7fc 45bf
00000110: 0aff e3be 5d53 b7bf 04e8 74bf 58ad a0c0
00000120: d6c1 6bbe 02a8 aebd 7edb 16c0 7686 08c0
00000130: 48b2 1b40 506e 52c0 49ab 29c0 71a5 38c0
00000140: f389 fe3b e2de 513f 1591 78bf c6b6 153e
00000150: 1c44 93bf eb4f 64c0 547f 4b3e 5fd3 d63e
00000160: bd13 c4bd 87ee 6cc0 e63c 143f 3efe c03f
00000170: dd9d 81c0 29c4 3dbf 4297 8740 ca2f d93e
00000180: b417 973f b307 f83e cf50 863f 21e9 5c3e
00000190: a890 76c0 4d7e acbd 49bd ffbf bc5d febe
000001a0: c699 81be 9d06 b3be 8568 c33f 22a5 6e3e
000001b0: 157f 89be 9619 0f40 7a2d 60bf 37e8 2b3f
000001c0: 3fc6 943e 1afb 64bf 072a a53f 6532 0a3f
000001d0: 6e78 c2bd f3c3 0ac0 8c2f 99be c357 f2bf
000001e0: c8ea 8cbd db40 1cc0 6d06 e5bf 947b 3bbf
000001f0: f1f2 b4bf 41f9 30bd 5e30 193e d844 aa3f
00000200: 814b 4e3f 1604 333e 5f7e 35c0 01c2 f33f
00000210: 9d89 3bbe f6a5 993f 902b 16c0 7201 6ec0
00000220: 8a34 35bf 2e57 6abf 6b9b 323e 2e46 f7bf
00000230: b944 67be f5e6 ba3f 812d b4be 9a56 3cbd
00000240: c4de 1bbf 99fa 90c0 46fc 903f a9c5 b4bf
00000250: 6ae3 28c0 29e3 b4be 4dd3 dfbd 76f3 6d3f
00000260: a3ec 9e3f 640f 803e 0b3f 7c3f 37ec edbf
00000270: 9518 1a3c 1a5c a13f d1d8 2abf ae10 d83f
00000280: ee27 78c0 19ae ddbf f103 0d40 da10 35bf
00000290: f0bf 2e40 16ff d63e e6ec 5ac0 f8ca 00c0
000002a0: 139b 443f 4946 873f 604f 88c0 b299 643e
000002b0: a6cf 1cbf 9ec5 0abe 871e ef3d 093e 70c0
000002c0: 4596 0740 4129 c4be 0e0d 0bc0 38ef a3bf
000002d0: 0b4f 613b 7022 a9bf cb19 62bf 32c0 9cbf
000002e0: 500b 56bd 3ceb c0bf 9c8c 32bf 9579 c83e
000002f0: e0fe 773f 0bdb 53bf cdd3 9bbd 28dd 2f3f
00000300: 87db 01bf 7d7a abbf e6d1 e8be 4d45 6abf
00000310: ef91 25c0 c3d2 5ebf b124 c3bf e813 d1c0
00000320: 70dd e43e bcac 4d3e c99b bfbf 7d44 c8be
00000330: 1cab 8f3f 7c3f 91c0 3437 aebf f628 93bf
00000340: 6b30 143d 440f f5bf 935c 0dbf 5cea ed3d
00000350: 945b 76bf a8c8 7a3e 240d 18c0 a869 9abe
00000360: 5af5 08c0 a916 9b3e e89f 1dbf 6dbd 09c0
00000370: 6869 ccbf 6e8a 193e 9f72 06c0 06c2 183f
00000380: 0ca2 0b3f 5495 c6c0 5139 c9be a5d6 fdbd
00000390: 8de9 39bf 4f27 c4be 2ba6 eabf efbd 433e
000003a0: 2e01 183f ae8e 5abf 37e9 debf 7e4f 24be
000003b0: a8de d33e 7033 ea3e bf58 0e3e 9701 bd3f
000003c0: 1ccb 98be cfb3 eac0 a926 13c0 5af4 2cc0
000003d0: ade4 24bd c725 ecbe cb35 08c0 65af 99bf
000003e0: e258 73bd 243b d5be 01c1 8d3e 7696 67be
000003f0: 74fe bfbf 882e 06bf a0ac e5bc 5f0e 1340
5.9467382 -2.431696 -1.4185668 -1.895834 -2.8073096 -1.7682548 -1.9168341 -2.9061491
-1.7418606 -1.0816569 -0.64824724 2.9653742 0.31304517 -1.4942068 -0.78399956 -0.6908525
-1.0076275 0.3039943 -0.26341945 -0.4020614 -2.6681423 -3.186049 -1.657234 1.6689599
-1.8852949 0.701454 1.5395082 -0.95933276 1.2521069 2.482071 1.4810889 -0.9793252
-1.8418039 0.23891224 0.4085457 0.8867935 -4.630903 -0.09686145 -0.6387534 -1.1748811
-0.696513 -0.4560025 -0.5497511 2.757343 -0.18884966 -0.60932267 -0.13599852 0.8990306
-0.8033478 -0.47207412 -1.7771918 -0.4868154 -0.15194221 0.17982341 -0.6396402 -0.13161144
0.065831155 -3.8575017 -1.9770706 0.7749556 -2.3351526 -0.31894487 0.0014866617 -3.3624625
-1.738613 2.8461463 0.14925656 -0.77339023 -0.44530517 -1.4322315 -0.9566653 -5.02116
-0.23023161 -0.08528139 -2.3571467 -2.1332068 2.4327564 -3.287983 -2.6510794 -2.8850977
0.0077679097 0.8198072 -0.9709638 0.14620504 -1.150516 -3.5673778 0.1987279 0.41958138
-0.09574077 -3.7020586 0.57905424 1.5077589 -4.0505204 -0.7412744 4.237214 0.42419273
1.1804109 0.48443374 1.0493411 0.21573307 -3.852579 -0.084225275 -1.997964 -0.4968089
-0.25312632 -0.34965983 1.5266272 0.2330518 -0.26854768 2.2359366 -0.8756939 0.67151207
0.290575 -0.8944565 1.2903451 0.53983146 -0.094956264 -2.1682098 -0.29919088 -1.8933033
-0.068807185 -2.4414585 -1.7892586 -0.7323544 -1.413664 -0.043206457 0.14959857 1.330226
0.8058396 0.17482027 -2.835838 1.904358 -0.18314214 1.2003772 -2.3464088 -3.7188382
-0.70783293 -0.91539276 0.174421 -1.9318292 -0.2258481 1.4601732 -0.35190967 -0.045981027
-0.6088679 -4.5305905 1.1326988 -1.4122821 -2.6388803 -0.3532956 -0.10928974 0.92949617
1.2415966 0.25011742 0.98533696 -1.8587712 0.009405275 1.2606232 -0.66737086 1.688009
-3.877437 -1.7318755 2.2033656 -0.7072884 2.730465 0.4199149 -3.4207091 -2.0123882
0.76799124 1.0568324 -4.2596893 0.22324255 -0.61254346 -0.13551947 0.116757445 -3.7537863
2.1185467 -0.38312724 -2.1726718 -1.2807379 0.0034379389 -1.3213634 -0.88320607 -1.2246153
-0.052256882 -1.5071788 -0.697458 0.3915526 0.96873283 -0.8275611 -0.07608757 0.6869683
-0.507256 -1.3396755 -0.4547264 -0.91511995 -2.587032 -0.87040347 -1.5245572 -6.53368
0.44700193 0.20085424 -1.4969417 -0.39114752 1.1224093 -4.5389996 -1.3610597 -1.1496875
0.036178987 -1.9145284 -0.5521938 0.11616966 -0.9623349 0.24490607 -2.375802 -0.30158734
-2.139975 0.30290726 -0.6157212 -2.1521866 -1.5969667 0.14994213 -2.100746 0.59671056
0.5454414 -6.2057285 -0.3930154 -0.12394456 -0.72621995 -0.3831124 -1.833196 0.19115423
0.593768 -0.8537396 -1.7414922 -0.16045949 0.4138081 0.4574237 0.13901041 1.476611
-0.2984246 -7.3344493 -2.2992346 -2.702414 -0.040257145 -0.46122572 -2.1282833 -1.2006651
-0.059410937 -0.41646683 0.27686313 -0.2261599 -1.4999528 -0.5241475 -0.028036416 2.2977521

layer3.bias f4 [32]
00000000: 68c8 1abe 232e 32bf bf04 bcbf e77b 9340
00000010: 4817 a0bd 6ef6 2bc0 7fbc e2bf 6763 8a40
00000020: cb32 5140 3a1e c140 57ee 9240 d541 b840
00000030: 1ce1 04c0 9c84 4740 4925 35c0 c7e0 0bbf
00000040: 9fd1 a6bf bca2 a3bf 197b 1740 b6d3 04be
00000050: 03ed a3bf 85ff d53f c73a 64bf 7de1 0dbf
00000060: 0b3d 7840 7d47 c640 5f73 ca40 fb44 aa3f
00000070: 9295 b93f c2cb 14bc 13f9 8ebe 55d0 61c0
-0.15115511 -0.6960165 -1.4688948 4.608875 -0.078169405 -2.6869159 -1.7713774 4.324634
3.2687252 6.03494 4.591594 5.758036 -2.0762396 3.1174688 -2.8304007 -0.5463986
-1.3032721 -1.2784038 2.3668883 -0.12971386 -1.2806705 1.6718603 -0.8915219 -0.5542219
3.8787258 6.1962266 6.3265834 1.3302301 1.449877 -0.009081783 -0.27924404 -3.5283406

layer4.weight f4 [4, 32]
00000000: 8a3c e5c0 402f 77c0 1393 aec0 66bb f540
00000010: 03f5 0241 de73 653f 9ec5 29c1 1c55 b83f
00000020: c231 f5c0 079b cb3f 9fed ad3f ec66 fe3f
00000030: cbff 3ebf a045 19c1 193c d43f 6475 943f
00000040: 00c3 8bbf e0e6 b040 500c d440 b5bf 91bf
00000050: 5508 1d40 48f2 98c0 6a76 77c0 128d 3f40
00000060: cfa2 1c40 7877 433f 3e79 1940 acc6 8940
00000070: f46e 8240 67e1 113f b0bd ddbc 970f 09c1
00000080: f0c7 7cc0 a9c0 36c0 1981 8240 eb04 8c40
00000090: 9af5 6e40 ea92 6f40 5804 06c0 ca88 0bbf
000000a0: 9550 8e40 2f6d cb3f 37aa f83f 5292 883f
000000b0: d0c5 2440 9396 aa3f b485 a240 cb05 cfbf
000000c0: fffe f140 f1de 8740 2a5a 8a40 9b9d 4640
000000d0: 7853 9d40 89d7 ac40 5c7e b9c0 31fe b3c0
000000e0: c113 f33e 7b58 f53f 4516 4440 9830 1540
000000f0: e537 16c1 c159 a840 a72a a83d f0b7 cdbf
00000100: 23a0 2d40 0b8f b940 9bc9 dc3f 08a0 8040
00000110: 7acd 3141 aed6 6d40 e480 6e40 5008 0f40
00000120: 237f 9d40 1abc ad3f 5eab 73bf 8634 d83f
00000130: b383 e6bf 0506 4041 d4a1 afc0 460c 8c40
00000140: 35f9 e440 62ae fe40 d3f6 0fc1 f56d a0c0
00000150: e3c6 bbc0 1ba4 bbc0 71be f4c0 8d33 ebc0
00000160: 9c25 d93f 8887 f33f 9dbe a33f 9769 03c1
00000170: 5c66 d140 714d 2840 c5f1 42bd 3c39 b3c0
00000180: de58 80c0 9545 a4c0 a56a 6e40 59ec 39c0
00000190: c44a 1a41 5438 9d40 92c5 c940 c04b 0940
000001a0: 6ba4 5d40 d4a9 fc3f 0d79 0340 d298 c63f
000001b0: 3d01 34c0 3dde f240 5be9 8dc0 c73e 673f
000001c0: 9a90 1dc1 062f 70c0 155a 0f41 9821 9fc0
000001d0: d31a 44c0 aa41 8440 c72d 95c0 e6f9 b540
000001e0: 0827 2340 ebc3 ef3f 7d72 653f bd46 1dc1
000001f0: d62a 8540 5c84 94c0 4bd5 d63d 71c2 a0be
-7.16364 -3.862259 -5.4554534 7.679126 8.184817 0.89629924 -10.610746 1.4400973
-7.662324 1.5906686 1.3588141 1.9875159 -0.7460906 -9.579498 1.658084 1.1598325
-1.0918884 5.528183 6.626503 -1.1386629 2.4536335 -4.7795753 -3.8666024 2.9929852
2.447437 0.7635417 2.398025 4.305502 4.076044 0.5698456 -0.02706799 -8.566306
-3.9497032 -2.855509 4.078259 4.3756003 3.7337403 3.743342 -2.0940151 -0.545056
4.4473367 1.5892695 1.9426945 1.0669653 2.5745735 1.3327202 5.078821 -1.6173643
7.5623775 4.2459645 4.3235064 3.1033695 4.916439 5.4013104 -5.7966747 -5.624779
0.4747601 1.9167627 3.0638592 2.331091 -9.388646 5.2609563 0.0821126 -1.6071758
2.712899 5.7987113 1.7249025 4.019535 11.112665 3.716228 3.7266169 2.2348824
4.9217696 1.3573029 -0.9518336 1.6891029 -1.8008941 12.00147 -5.4885044 4.376498
7.155421 7.958787 -8.99776 -5.0134225 -5.868028 -5.8637824 -7.6482472 -7.350043
1.6964602 1.9025736 1.2792546 -8.213279 6.543745 2.6297266 -0.04759385 -5.6007366
-4.010848 -5.133494 3.725259 -2.9050505 9.643253 4.913126 6.3053675 2.1452484
3.4631603 1.9739327 2.0542634 1.5515387 -2.8125756 7.5896287 -4.434736 0.90330166
-9.847803 -3.75287 8.959493 -4.972851 -3.0641372 4.1330156 -4.661838 5.686755
2.5492573 1.8731664 0.8962782 -9.82977 4.161479 -4.641157 0.10489901 -0.31398347

layer4.bias f4 [4]
00000000: c092 a340 ef15 d440 b369 db40 55ad a240
5.111664 6.6276774 6.8566527 5.0836587
