reinforcement_learning/dqn_snake/linear_snake_parameters.pth (torch, 33216 bytes, 8 tensors)

layer1.weight f4 [64, 16]
0	0xbe0290ae	-0.12750503
1	0xbe3d02e9	-0.18458141
2	0xbe91f0cd	-0.2850403
3	0xbebb33d0	-0.36562967
4	0xbf87d67d	-1.0612332
5	0xbe917e27	-0.2841656
6	0xbe79e860	-0.2440505
7	0xbef00ed0	-0.468863
8	0xbe87a959	-0.2649639
9	0x3f43cbdf	0.7648296
10	0xbedb823c	-0.42872798
11	0x3f04a97e	0.51821125
12	0xbf0206cf	-0.5079164
13	0xbe56632d	-0.2093627
14	0x3f15bab1	0.58487993
15	0x3e8974d1	0.26846936
16	0x3e274b1c	0.16337246
17	0xbe52d3d4	-0.20588619
18	0x3eb472fd	0.3524398
19	0xbc7fc6fc	-0.015611406
20	0x3eb5e6a6	0.35527533
21	0x3e443ab5	0.1916302
22	0x3dd6a613	0.10480895
23	0x3e8e4ea2	0.27794367
24	0x3d945952	0.07243599
25	0xbe94ed18	-0.29087138
26	0xbf3104b8	-0.69147825
27	0xbf2ebde3	-0.68258494
28	0xbe4097a9	-0.18807854
29	0xbe9082f4	-0.2822491
30	0xbea792c8	-0.32729173
31	0x3dd60c5c	0.10451576
32	0x3eb51deb	0.35374388
33	0x3dd5891b	0.104265414
34	0xbf52ac40	-0.8229408
35	0xbeba531d	-0.36391535
36	0xbf220e08	-0.6330266
37	0xbec046ce	-0.3755402
38	0xbeb87e18	-0.36033702
39	0xbdb9e9f8	-0.09077829
40	0x3fa0b14e	1.2554109
41	0xbf3172a7	-0.6931557
42	0x3f09e2c5	0.5386165
43	0xbf39c220	-0.72561836
44	0x3e8d3bab	0.27584586
45	0xbf1f5198	-0.6223388
46	0x3e95e761	0.2927809
47	0x3f4cf0f9	0.80055195
48	0x3ef2c7ef	0.47418162
49	0xbe62f891	-0.22165133
50	0xbe97a3a8	-0.29617047
51	0x3d5c0152	0.053712197
52	0xbdfc8aba	-0.123311475
53	0x3f2a758d	0.6658562
54	0x3e4c517d	0.1995296
55	0x3e80125d	0.2501401
56	0x3f6c3e4e	0.9228257
57	0xbf63e567	-0.89021915
58	0xbf948f5c	-1.160625
59	0xbeb2fc02	-0.34957892
60	0xbe8573de	-0.26064962
61	0x3bb1103b	0.005403546
62	0xbe80b4d7	-0.2513797
63	0xbeee612c	-0.4655851
64	0xbd86d5ce	-0.06583749
65	0x3eda0a56	0.4258601
66	0x3d8d3ddf	0.068965666
67	0xbc32d7d0	-0.0109157115
68	0xbe46714e	-0.1937916
69	0x3eb960f6	0.36206788
70	0x3e683db8	0.22679794
71	0x3e9d9c19	0.30783156
72	0xbf69bcdd	-0.9130381
73	0xbee0724a	-0.43837196
74	0x3eefa976	0.46808976
75	0x3ec2d6ba	0.38054448
76	0xbfaf920d	-1.3716446
77	0xbf58d550	-0.8470049
78	0xbfa732c7	-1.3062371
79	0xbf4a2a8d	-0.7897118
80	0xbf5677b4	-0.837764
81	0xbf012d58	-0.50459814
82	0x3e787d4e	0.2426655
83	0x3e6d2ea4	0.23162323
84	0x3da53f2d	0.080686904
85	0x3e8d3cdc	0.27585495
86	0x3e5331ea	0.2062451
87	0xbce8deb1	-0.0284265
88	0xbf014336	-0.5049318
89	0x3e48ce25	0.19609888
90	0x3f17ce31	0.59299
91	0xbdc4ed08	-0.096155226
92	0x3d3b4dae	0.045728378
93	0x3cfa7cda	0.030577112
94	0x3e16439b	0.14674227
95	0xbe1ad931	-0.15121914
96	0xbd6272cf	-0.05528527
97	0xbfb482f1	-1.410246
98	0xbea80515	-0.32816377
99	0x3eb0c5b0	0.34525824
100	0xbf457659	-0.7713371
101	0xbf529fdc	-0.82275176
102	0xbf7168d2	-0.9430057
103	0xbeec0246	-0.46095484
104	0x3db2a8f4	0.087236315
105	0x3f5f8c9f	0.87323946
106	0xbe568048	-0.20947373
107	0x3f328138	0.6972842
108	0x3f8cfca2	1.1014597
109	0x3f9c6614	1.2218652
110	0x3f03d78c	0.51500773
111	0xbf325e23	-0.6967489
112	0x3e7cdcb2	0.24693564
113	0x3dca330d	0.098730184
114	0xbe3b3d60	-0.18285131
115	0xbeaa4d1f	-0.33261964
116	0xbf2da65b	-0.67831963
117	0xbe2336df	-0.159389
118	0xbe1f348a	-0.15547386
119	0xbdda112d	-0.10647807
120	0xbe825fb1	-0.25463632
121	0xbf37902b	-0.7170436
122	0x3d45ef5c	0.048323974
123	0x3f1995e1	0.5999432
124	0x3f4750d9	0.7785774
125	0x3f748636	0.9551729
126	0x3f6db1b2	0.92849267
127	0x3f7c8af7	0.98649544
128	0xbe862bcf	-0.26205298
129	0x3d5457d0	0.051841557
130	0xbe5b7393	-0.21430807
131	0xbe8c2a23	-0.27375898
132	0xbeed6b8d	-0.46371117
133	0xbe050760	-0.12991095
134	0xbf3217bc	-0.69567466
135	0xbec471df	-0.38368127
136	0xbec99d23	-0.39377698
137	0xbef2e8b8	-0.47443175
138	0xbf074778	-0.5284343
139	0x3fc3826f	1.527418
140	0xbf3aab9f	-0.72918123
141	0x3f9ef5ea	1.2418797
142	0xbdd6086e	-0.104508266
143	0xbf616597	-0.8804564
144	0x3dc9d3f4	0.0985488
145	0x3e08e999	0.1337036
146	0xbee926dc	-0.4553746
147	0xbe08fbb4	-0.13377267
148	0xbf04e067	-0.5190491
149	0xbf58b17d	-0.84645826
150	0x3dd3afb4	0.10336247
151	0xbec44605	-0.3833467
152	0xbdfea953	-0.1243464
153	0x3f0fd738	0.5618777
154	0x3fa1c16c	1.2637153
155	0xbf16a953	-0.5885212
156	0xbf5cf624	-0.8631308
157	0x3fbc8a39	1.4729682
158	0x3f6df362	0.929495
159	0x3ecea226	0.40358084
160	0x3e5ddae0	0.21665525
161	0x3ec23e03	0.37937936
162	0xbf31999f	-0.6937503
163	0xbf35fedf	-0.7109203
164	0x3e8a88cd	0.27057496
165	0xbfa1c387	-1.2637795
166	0xbde1edac	-0.110316604
167	0x3f02fcab	0.5116679
168	0xbd48b075	-0.048996408
169	0x3f6e5567	0.93099064
170	0xbf7c4699	-0.98545223
171	0x3e36a4d8	0.1783632
172	0x3f955f79	1.1669761
173	0x3ed7a6db	0.42119488
174	0x3e23a5e0	0.15981245
175	0x3f34b495	0.70588046
176	0xbf43b311	-0.7644511
177	0xbf40ba63	-0.75284404
178	0xbd275c3e	-0.040859453
179	0xbf5a0d14	-0.85176206
180	0xbda7d22e	-0.081943855
181	0xbd402a79	-0.046915505
182	0xbf066f79	-0.52513844
183	0xbe94cc2a	-0.29062015
184	0xbe5a4a36	-0.21317372
185	0x3ee20607	0.44145223
186	0x3e1bc580	0.15212059
187	0xbdd5463d	-0.104137875
188	0x3e5987ba	0.21243182
189	0xbf21302b	-0.62964123
190	0xbea076af	-0.31340548
191	0xbe028762	-0.12746957
192	0xbd8105ac	-0.0629991
193	0xbe35fc7b	-0.17772095
194	0x3e254a69	0.16141666
195	0xbd42ea9c	-0.047587022
196	0x3f552c6b	0.832709
197	0xbe8e54a2	-0.27798945
198	0xbf27be8d	-0.6552513
199	0xbf27ac4a	-0.6549727
200	0x3ee62638	0.44951034
201	0x3f290ec0	0.6603813
202	0x3f2cf081	0.6755448
203	0x3f1324d9	0.574781
204	0x3f3aa2f5	0.729049
205	0xbf860199	-1.0469238
206	0x3f3230f9	0.69605976
207	0xbec61e14	-0.38694823
208	0x3d208229	0.03918663
209	0xbeaadf66	-0.33373564
210	0xbf934258	-1.1504622
211	0xbf7b8dc0	-0.9826317
212	0xbebbc7ca	-0.36675864
213	0xbe2c2ac9	-0.16813196
214	0x3d960fec	0.073272556
215	0xbf63e130	-0.89015484
216	0x3f0313a9	0.51201874
217	0x3cc304ce	0.023806002
218	0xbe495be5	-0.19663961
219	0xbe6c6c1b	-0.23088114
220	0x3f01e5a1	0.5074101
221	0x3e5bb521	0.21455814
222	0xbe8d5f8e	-0.27611965
223	0xbf40333d	-0.75078183
224	0x3bb62b5c	0.005559368
225	0x3ecfce8e	0.40587276
226	0xbe875dfa	-0.26438886
227	0xbf977591	-1.1832753
228	0x3edad31e	0.42739195
229	0xbf15c0f3	-0.5849754
230	0x3ef23eb0	0.47313452
231	0xbfb363fd	-1.4014889
232	0x3f9a06a0	1.2033272
233	0x3e8d4b11	0.27596334
234	0xbf3249cd	-0.6964386
235	0x3f7046d4	0.93858075
236	0xbea0dc07	-0.31417868
237	0xbed0ff26	-0.40819663
238	0xbf47a741	-0.77989584
239	0xbf1f739f	-0.622858
240	0xbf2dbfad	-0.678706
241	0xbf61f927	-0.882708
242	0xbd9b63c5	-0.07587389
243	0xbe8920d4	-0.26782858
244	0x3dbe7347	0.09299331
245	0x3f60a208	0.8774724
246	0xbe06aa1a	-0.13150826
247	0xbe71365c	-0.23555893
248	0x3ea2d464	0.31802666
249	0xbf0f7269	-0.5603395
250	0xbf149758	-0.5804343
251	0xbf48cd06	-0.7843784
252	0xbf53e8c0	-0.82777023
253	0x3df97f5b	0.12182494
254	0x3f0170a0	0.5056248
255	0xbee7a761	-0.45244887

layer1.bias f4 [64]
0	0xbf7c9d2e	-0.9867734
1	0x3f3a1f39	0.7270389
2	0xbf2e62be	-0.6811942
3	0x3ea95bb6	0.33077782
4	0x3c845aaf	0.016156523
5	0x3efcf36f	0.49404475
6	0xbf85c355	-1.0450236
7	0xbf0f5d09	-0.56001335
8	0xbf685753	-0.90758246
9	0xbf6dc0a2	-0.9287206
10	0xbecd9df6	-0.40159577
11	0xbeafeae4	-0.34358895
12	0xbf5c4381	-0.860405
13	0xbf65f394	-0.89824796
14	0xbd4d8d8a	-0.05018381
15	0x3d53b6e2	0.051688083
16	0xbf0bbf25	-0.5458854
17	0xbf000091	-0.50000864
18	0xbe2507f5	-0.16116317
19	0xbede4ce8	-0.4341805
20	0xbf13c50d	-0.5772255
21	0xbc8d4739	-0.017245876
22	0xbe41d493	-0.18928747
23	0x3e01be8e	0.12670347
24	0x3eaefe0e	0.34178203
25	0x3d9066e6	0.07050876
26	0xbecd5328	-0.40102506
27	0x3f3e4b12	0.743333
28	0x3dac3455	0.08408419
29	0x3f2d1d63	0.67622966
30	0xbf07d2db	-0.53056115
31	0x3e17074b	0.14748876
32	0xbdabf6f4	-0.08396712
33	0x3e37fa22	0.17966512
34	0xbebda32a	-0.37038547
35	0xbf7415c5	-0.9534572
36	0xbe8fb700	-0.28069305
37	0xbe218ba8	-0.15775931
38	0xbc08bb45	-0.00834543
39	0x3e822a12	0.25422722
40	0xbe864e44	-0.26231587
41	0xbf1ad9e1	-0.60488707
42	0xbf3252df	-0.696577
43	0xbf598ab3	-0.84977263
44	0xbeb0ec6e	-0.34555382
45	0xbea1658c	-0.31522787
46	0xbf582592	-0.8443233
47	0xbe5bcf67	-0.21465836
48	0x3dd58fa9	0.104277916
49	0xbeaa4495	-0.3325545
50	0xbec7c747	-0.39019224
51	0xbeeebd6b	-0.4662889
52	0xbf2d2bc7	-0.67644924
53	0xbedac7d4	-0.42730582
54	0xbe91bf02	-0.2846604
55	0xbed559c5	-0.4167005
56	0xbeacc461	-0.33743575
57	0xbdd7b91b	-0.10533353
58	0xbf01e849	-0.50745064
59	0xbee44bb1	-0.44588998
60	0xbdb30acb	-0.08742293
61	0x3f2b967b	0.6702649
62	0xbd1a70e2	-0.03770531
63	0xbeea9c16	-0.4582221

layer2.weight f4 [64, 64]
0	0x3c6dc21b	0.01451161
1	0x3d10398f	0.035211142
2	0xbfa0e460	-1.2569695
3	0xbf473e50	-0.77829456
4	0xbe01b1e0	-0.1266551
5	0x3e382769	0.17983784
6	0x3f01b6b2	0.50669396
7	0xbc3b655c	-0.01143774
8	0x3e8c7e56	0.27440137
9	0x3ec33779	0.3812826
10	0xbf8c802d	-1.0976616
11	0x3d982428	0.07428771
12	0x3f3d9d42	0.7406808
13	0xbf59d870	-0.8509588
14	0xbf361919	-0.71132046
15	0xbe86ce21	-0.2632914
16	0x3f995e92	1.1981986
17	0xbdbd4e4c	-0.092434496
18	0x3f791bb4	0.97307897
19	0xbffa1503	-1.9537662
20	0xbed9823c	-0.42482173
21	0x3e5ab59b	0.2135834
22	0xbfdc2dea	-1.7201512
23	0x3e80894a	0.25104743
24	0x3db449fc	0.08803174
25	0xbe8b80fc	-0.27246845
26	0x3eddd050	0.43322992
27	0xbe562ed7	-0.20916305
28	0xbf395517	-0.7239546
29	0xbed7bf09	-0.42137936
30	0x3e7d3f17	0.24731098
31	0x3e2cce7b	0.16875641
32	0xbf898949	-1.0745021
33	0x3e896bd9	0.26840094
34	0xbfbd9f35	-1.4814211
35	0xbf8f78f6	-1.1208789
36	0x3d34f141	0.04417539
37	0xbf13e426	-0.5777
38	0x3d06c406	0.032901786
39	0xbf22d5f2	-0.63607705
40	0x3dd52759	0.104078956
41	0x3c17d790	0.009267703
42	0xbe476466	-0.19471893
43	0xbf083de0	-0.53219414
44	0xbf520373	-0.82036513
45	0x3e7365cf	0.23769306
46	0x3f83f8e3	1.0310329
47	0x3f6fc27f	0.9365615
48	0xbf2b500b	-0.6691901
49	0xbf53f448	-0.8279462
50	0xbf4f1258	-0.80887365
51	0xbec1d095	-0.37854448
52	0x3f1b05f5	0.60555965
53	0x3e4ae6d7	0.19814621
54	0x3daf6148	0.08563477
55	0x3f306792	0.68908036
56	0x3f1681ef	0.5879201
57	0xbf6c0b14	-0.92204404
58	0x3f869622	1.0514567
59	0xbf11f102	-0.57008374
60	0x3eece0d1	0.4626527
61	0x3d9644c7	0.07337337
62	0x3e5d988f	0.21640228
63	0xbf33fcae	-0.70307434
64	0x3d5c219b	0.053742986
65	0xbece670e	-0.40313
66	0xbf9ec50d	-1.2403885
67	0xbb1a4c02	-0.002354384
68	0xbf3c5992	-0.73574173
69	0xbf0f8461	-0.5606137
70	0x3f934d54	1.1507974
71	0x3ec12fc6	0.3773176
72	0x3f8afcb0	1.0858364
73	0xbf91f05c	-1.1401477
74	0xbf62aa56	-0.8854116
75	0x3f54f662	0.8318845
76	0x3fb36817	1.4016141
77	0xbf561084	-0.8361895
78	0xbf51c17c	-0.8193586
79	0xbfb5842d	-1.4180962
80	0x3deafd70	0.114741206
81	0x3ee09da0	0.43870258
82	0xbea287c4	-0.31744206
83	0xbcb8e51d	-0.022570187
84	0x3cfcfe49	0.030882971
85	0x3e9c5099	0.3053024
86	0x3ecba1cd	0.39771882
87	0xbf5bdad5	-0.85880786
88	0xbe32099d	-0.1738648
89	0x3f139c30	0.576602
90	0x3f167e31	0.587863
91	0xbfa92c71	-1.3216687
92	0xbc11de97	-0.008903167
93	0xbdf7e059	-0.12103338
94	0xbefc8910	-0.4932332
95	0x3daa6192	0.08319391
96	0x3f812fd9	1.0092727
97	0xbf5a4857	-0.8526663
98	0x3ede890d	0.43463936
99	0xbf4aedf7	-0.79269356
100	0x3e71fe75	0.23632224
101	0xbef0f15a	-0.47059137
102	0xbf2cfaff	-0.6757049
103	0xbd9772e8	-0.073949635
104	0xbf83cc5a	-1.0296738
105	0xbf5c0dbd	-0.8595846
106	0x3ea4a4e0	0.3215704
107	0xbee160ee	-0.44019264
108	0xbf88427c	-1.064529
109	0x3f0623f8	0.52398634
110	0x3df74a27	0.1207469
111	0x3f1a6a6b	0.6031863
112	0xbeff6b7c	-0.49886692
113	0xbfba6ef7	-1.4565114
114	0xbd64ee9a	-0.05589161
115	0x3f9e0723	1.2345928
116	0xbed41af0	-0.41426802
117	0xbec651d4	-0.38734305
118	0x3d483120	0.048874974
119	0xbef53958	-0.47895312
120	0xbf7e110f	-0.9924478
121	0xbeb11488	-0.34585977
122	0xbece9be3	-0.40353307
123	0x3ea1ce2a	0.31602603
124	0x3defd3c7	0.11710315
125	0xbec4622c	-0.3835615
126	0xbfed3f34	-1.8534913
127	0x3e2366a9	0.1595713
128	0x3eabb7dd	0.33538714
129	0x3d21794d	0.039422322
130	0xbe21350d	-0.15742894
131	0xbf1d26be	-0.6138724
132	0xbe4106ce	-0.18850252
133	0x3f259f6f	0.646964
134	0xbeca5e9d	-0.3952531
135	0x3f0bf47d	0.54669935
136	0x3d7cd786	0.061728977
137	0x3fd1defc	1.6396174
138	0x3f35e843	0.7105753
139	0xbd5fe33b	-0.054660063
140	0xc0461458	-3.0949917
141	0xc08c596b	-4.3859153
142	0xbf65e399	-0.8980041
143	0xbf45a120	-0.7719898
144	0xbd3fdf2a	-0.046843685
145	0x3f46fc98	0.7772918
146	0xbe0f7ae9	-0.1401173
147	0x3e0300dd	0.12793298
148	0xbfc0f555	-1.5074869
149	0xbf08bfba	-0.5341755
150	0xbec45cc3	-0.38352022
151	0xbd7f0acd	-0.06226616
152	0xbf16d892	-0.5892421
153	0xc0255e71	-2.5838892
154	0x3fc1c99f	1.5139655
155	0x3ec8bace	0.3920502
156	0x3cf553f3	0.029947257
157	0x3da3db2b	0.08000787
158	0xbf93308f	-1.1499194
159	0xbfb2a760	-1.3957329
160	0x3f029931	0.51015
161	0x3e0288b8	0.12747467
162	0xbe99ced8	-0.30040622
163	0xbfb2d2c1	-1.3970567
164	0xbeae970e	-0.3409962
165	0xbf1fcb80	-0.6241989
166	0xbd9406e8	-0.0722788
167	0x3e2b3430	0.16719127
168	0xbda1ada3	-0.07894447
169	0xbf58535a	-0.84502184
170	0xbeebb25e	-0.4603452
171	0xbf5603c2	-0.83599484
172	0x3f12d033	0.57348937
173	0xbfac1c72	-1.3446181
174	0xbfa249e7	-1.2678803
175	0xbf1b89c4	-0.6075709
176	0xbf875bd5	-1.05749
177	0xbf7d62fa	-0.9897915
178	0x3facca4a	1.3499234
179	0x3eb1b24b	0.3470634
180	0x3f2dfb60	0.6796169
181	0x3e41cf43	0.1892672
182	0xc0583706	-3.3783584
183	0xbfa77ec3	-1.308556
184	0xbf7566b2	-0.95859826
185	0xbfb00cd9	-1.3753921
186	0xbdeb4172	-0.11487092
187	0x3b9faf40	0.0048731863
188	0x3ebc8db9	0.36826876
189	0x3b9369bf	0.00449869
190	0x3f0a18cb	0.5394408
191	0x3f63ea3d	0.89029294
192	0xbe4081c8	-0.18799508
193	0xbe3d8154	-0.18506366
194	0xbe2aaac3	-0.16666703
195	0xbd4604e5	-0.04834451
196	0x3d3fea5b	0.04685436
197	0xbdd81aa8	-0.10551959
198	0x3d2b40a4	0.041809693
199	0x3c2090be	0.009800134
200	0xbdf953a2	-0.12174155
201	0xbdaca1d6	-0.08429305
202	0xbe278632	-0.16359785
203	0x3c731987	0.014837629
204	0xbe34bc35	-0.1764992
205	0xbd083edf	-0.033263084
206	0xbd886887	-0.06660562
207	0xbc831a62	-0.016003791
208	0x3cb16d4a	0.021658558
209	0xbce9b3cb	-0.028528115
210	0x3cc8f16b	0.02452918
211	0xbca039b8	-0.019558772
212	0xbdc31e53	-0.09527268
213	0xbdf884f3	-0.12134733
214	0x3cdd4d2f	0.027014343
215	0xbd539e46	-0.051664613
216	0xbe040512	-0.12892559
217	0xbdbd6a21	-0.09248758
218	0x3d754af8	0.05988595
219	0xbe3f0341	-0.18653585
220	0xbe003267	-0.12519227
221	0xbe100a34	-0.14066392
222	0xbe1e7c88	-0.15477192
223	0xbd60ba60	-0.05486524
224	0xbdbcbbfe	-0.09215544
225	0x3cf9b577	0.030482037
226	0xbd92d45b	-0.0716941
227	0xbdaf8a88	-0.085713446
228	0xbdb43546	-0.087992236
229	0x3d28e34a	0.041232385
230	0x3d417613	0.047231745
231	0x3b34878a	0.0027546608
232	0xbe203220	-0.15644121
233	0xbda46348	-0.08026749
234	0xbccfb49c	-0.025354676
235	0x3ca4e1de	0.020127233
236	0xbc57ef0f	-0.013179555
237	0xbdd2db74	-0.102957636
238	0xbe2f568f	-0.17122863
239	0xbe46a2ad	-0.19397993
240	0x3ac6affa	0.0015158646
241	0xbd588e7a	-0.05287025
242	0xbce05d38	-0.0273882
243	0xbd717a6a	-0.058954634
244	0xbd83640e	-0.06415568
245	0xbdd3f5cd	-0.10349617
246	0xbd1505a7	-0.036382344
247	0xbe3c218e	-0.18372175
248	0xbdc9c8dd	-0.09852765
249	0xbd39dcf6	-0.04537674
250	0xbd1c9879	-0.038231347
251	0xbe028ef7	-0.1274985
252	0xbd75913a	-0.059952952
253	0xbc5d3c40	-0.013503134
254	0xbd96cc3d	-0.07363174
255	0xbccf0a17	-0.025273366

layer2.bias f4 [64]
0	0x3f074bed	0.5285023
1	0x3d4e61ee	0.05038636
2	0x3e86ae73	0.2630497
3	0x3ceda6ca	0.029010195
4	0x3e88e46a	0.26736766
5	0x3f83679e	1.0265996
6	0x3e20f694	0.15719062
7	0x3f9cb428	1.2242479
8	0x3f204efd	0.62620527
9	0x3e244476	0.16041741
10	0x3eb54fbb	0.35412392
11	0xbea4dc82	-0.32199484
12	0xbf24d956	-0.6439413
13	0xbe46b640	-0.1940546
14	0x3f8a3eae	1.0800378
15	0xbe8bf07a	-0.27331907
16	0x3f64d90b	0.8939368
17	0x3f00a1d0	0.50246906
18	0xbdada388	-0.08478457
19	0xbef535e5	-0.4789268
20	0x3f3be795	0.7340024
21	0xbf0d09ea	-0.5509325
22	0x3f5c51a9	0.86062104
23	0xbedb3adb	-0.4281834
24	0x3e2c10e0	0.16803312
25	0x3e806b15	0.25081697
26	0xbd38c7b8	-0.04511234
27	0x3ed3ca9e	0.41365522
28	0x3f7e89de	0.9942912
29	0xbc9949ac	-0.018711887
30	0x3f857a66	1.0427978
31	0x3e9e7c27	0.30954096
32	0x3f5e867d	0.8692396
33	0x3f7cf350	0.98808765
34	0x3d8e4b24	0.06947926
35	0x3f454458	0.7705741
36	0x3e32cf07	0.17461787
37	0xbde9a9ee	-0.11409365
38	0x3f98ad8a	1.192796
39	0x3f05da99	0.5228668
40	0x3f87aa00	1.0598755
41	0xbd985d7a	-0.07439704
42	0x3f8a567b	1.0807642
43	0xbef4a62d	-0.47783032
44	0x3f3795e3	0.71713084
45	0xbe218247	-0.15772353
46	0xbe57b5e7	-0.21065484
47	0xbea93288	-0.33046365
48	0xbe5584f0	-0.20851493
49	0xbd32f3e1	-0.043689612
50	0x3f998b6a	1.1995671
51	0x3eeee876	0.4666173
52	0xbd94a28b	-0.07257565
53	0xbef7b9d3	-0.4838396
54	0x3f768b81	0.96306616
55	0x3ee8bc40	0.45456123
56	0xbe0b0bf9	-0.13578786
57	0x3f9e1624	1.2350507
58	0x3ef2a45e	0.47391027
59	0x3e41b6b2	0.18917349
60	0xbe8d35e8	-0.2758019
61	0x3eb18d1f	0.3467798
62	0xbd9fc2ee	-0.07800852
63	0x3ed58367	0.41701815

layer3.weight f4 [32, 64]
0	0x3e8e629b	0.27809605
1	0xbf189a41	-0.5961037
2	0xbe9ae222	-0.3025065
3	0x3da1f784	0.07908538
4	0xbffefd73	-1.9921097
5	0xbe1d21a0	-0.15344858
6	0xbf1f9662	-0.6233884
7	0x3e32d3c9	0.17463602
8	0xbd015208	-0.03157237
9	0x3ecf9226	0.4054119
10	0xbf2607b5	-0.6485551
11	0xbeed7a00	-0.4638214
12	0x3f369e1f	0.71335024
13	0x3e0316d4	0.12801677
14	0x3e521c82	0.20518687
15	0x3e66b231	0.22528912
16	0xbc8c2709	-0.017108457
17	0x3e7f1738	0.24911201
18	0x3d7b5c16	0.061367117
19	0x3f895103	1.0727848
20	0xbe935825	-0.28778186
21	0xbf8d8acc	-1.1057982
22	0x3dba5193	0.0909759
23	0xbf12440d	-0.5713509
24	0xbf4a1067	-0.7893128
25	0x3f0bf111	0.54664713
26	0x3f1347af	0.57531255
27	0x3ea271b2	0.31727368
28	0x3e47395e	0.19455478
29	0x3f8da42f	1.106573
30	0xbe1c7ab7	-0.15281187
31	0x3cb8fe59	0.02258222
32	0xbe9e8a82	-0.30965048
33	0xbe721b51	-0.23643233
34	0x3f2c2b8a	0.67253935
35	0x3daccfb4	0.08438054
36	0xbf117999	-0.5682617
37	0xbdc242b4	-0.09485379
38	0x3d5a655e	0.053319328
39	0x3daa1adf	0.083059065
40	0xbd00baf9	-0.03142831
41	0xbf4dbf8c	-0.803704
42	0x3e83765b	0.25676236
43	0xbbec8b20	-0.0072187334
44	0x3d263a1a	0.040582754
45	0xbef55af4	-0.47920954
46	0x3d9f38e0	0.0777452
47	0x3f9d66cf	1.2297
48	0x3c1de6a9	0.009637513
49	0xbc2ee450	-0.010674551
50	0xbdcb3ba3	-0.09923484
51	0x3e98fc66	0.29880065
52	0xbde59068	-0.11209184
53	0x3e3823a1	0.17982341
54	0x3bfeadaf	0.0077721695
55	0x3dc86b45	0.09786085
56	0x3d86d27c	0.065831155
57	0x3b4f1557	0.0031598413
58	0xbf5a0168	-0.85158396
59	0x3f03eee7	0.5153641
60	0xbfdc2340	-1.7198257
61	0x3ec4e8ce	0.38458866
62	0x3d188d58	0.03724417
63	0x3e91ac05	0.28451553
64	0xbf35f606	-0.71078527
65	0x3f067b52	0.5253192
66	0x3f2fa5b8	0.6861224
67	0xbe063a20	-0.1310811
68	0xbf3b8c96	-0.7326139
69	0xbe829331	-0.25502923
70	0xbf395e44	-0.7240946
71	0xbef07b1d	-0.46968928
72	0xbe1617ed	-0.14657564
73	0x3d56f0a1	0.052475575
74	0xbf27c100	-0.6552887
75	0xbf9d08f3	-1.2268356
76	0xbdd8a19a	-0.10577698
77	0x3dc5e792	0.09663309
78	0xbe957578	-0.29191184
79	0xbf062888	-0.52405596
80	0xbeb12c79	-0.34604242
81	0xbf0338b6	-0.5125841
82	0xbf789115	-0.9709638
83	0x3e5c5f3b	0.21520703
84	0x3e12d05e	0.14337298
85	0x3e26f430	0.16304088
86	0xbde80258	-0.11328572
87	0xbf6770f4	-0.9040673
88	0xbf04058b	-0.5157096
89	0xbf883f6b	-1.0644354
90	0x3f2e0770	0.679801
91	0x3ec86777	0.39141437
92	0xbea943ea	-0.33059627
93	0xbf3dc429	-0.7412744
94	0xbefc1c56	-0.4924037
95	0x3f0b0fa1	0.5432072
96	0xbf3b92e8	-0.73271036
97	0xbf19ea85	-0.60123473
98	0x3f8650cf	1.0493411
99	0xbe07ebd0	-0.13273549
100	0x3f0ebc3e	0.55755985
101	0xbdac7e4d	-0.084225275
102	0xbee363f0	-0.44412184
103	0xbfeca60b	-1.8488172
104	0xbe3ee99c	-0.18643802
105	0xbeb22627	-0.34794733
106	0xbe00b909	-0.12570585
107	0x3f80a962	1.0051692
108	0xbceac037	-0.028656108
109	0x3ff7c98e	1.9358385
110	0xbe1f563b	-0.15560238
111	0x3eec677f	0.4617271
112	0xbe805aa9	-0.25069168
113	0x3dfd1cc5	0.12359003
114	0xbea39fdd	-0.31957904
115	0xbedb2c2d	-0.4280714
116	0xbdc2786e	-0.094956264
117	0xbfa8fff7	-1.3203114
118	0xbe448ac0	-0.19193554
119	0xbfb57f57	-1.4179486
120	0xbd8ceac8	-0.068807185
121	0xbed104a9	-0.40823868
122	0xbdecf6d8	-0.11570519
123	0xbf3b7b94	-0.7323544
124	0xbfb4f2f1	-1.413664
125	0x3e9195a7	0.28434488
126	0x3e19305e	0.14959857
127	0x3eec0c88	0.4610331
128	0x3dfd2ddd	0.12362263
129	0xbebcb806	-0.3685915
130	0xbe92278e	-0.28545803
131	0x3ce60ed3	0.02808324
132	0xbf360d79	-0.7111431
133	0xbe8256da	-0.25456887
134	0xbe616341	-0.22010519
135	0xbe86d572	-0.2633472
136	0xbea27c55	-0.31735483
137	0xbd84c502	-0.06482889
138	0xbf8b76ec	-1.0895667
139	0xbf22b913	-0.6356365
140	0x3e25d846	0.16195783
141	0x3b659cdd	0.0035036125
142	0xbeeb5c43	-0.45968828
143	0xbf153523	-0.58284205
144	0xbe83d56d	-0.25748768
145	0xbf35d5c8	-0.7102933
146	0xbeb6d31d	-0.35707942
147	0xbf299be2	-0.66253483
148	0xbeb2783c	-0.34857357
149	0x3f988532	1.1915648
150	0xbf0cfb6c	-0.5507114
151	0x3e78fdf6	0.24315628
152	0x3eec3f15	0.46141878
153	0x3f7fa6e3	0.99864024
154	0xbc754ac4	-0.014971439
155	0xbf301fd0	-0.6879854
156	0xbeb8db68	-0.36104894
157	0x3f6e740a	0.9314581
158	0xbe59e3c9	-0.212783
159	0x3fad0441	1.3516923
160	0xbe08a6ce	-0.13344881
161	0xbeac91f6	-0.3370511
162	0x3f28ac20	0.6588764
163	0xbf05959c	-0.5218141
164	0xbf3f99e0	-0.7484417
165	0x3c1220ca	0.00891895
166	0xbe785d12	-0.24254254
167	0xbef676ad	-0.48137417
168	0x3d1524b9	0.036411975
169	0x3f9d4aea	1.2288487
170	0xbed7ae75	-0.42125288
171	0x3f793af4	0.9735558
172	0xbef2493b	-0.47321495
173	0xbc8aaa00	-0.016926765
174	0x3eafe55e	0.3435468
175	0x3ea36253	0.31910953
176	0x3d40fd3d	0.047116507
177	0xbba9e16e	-0.005184344
178	0xbe04b53c	-0.1295976
179	0xbf04e14a	-0.51906264
180	0x3d52d482	0.051472194
181	0xbfa92270	-1.3213634
182	0xbedbaed7	-0.4290683
183	0x3e845647	0.25847074
184	0xbd560b50	-0.052256882
185	0xbe2ba651	-0.16762663
186	0x3b275d8c	0.0025537936
187	0x3ed3b41a	0.41348344
188	0x3fb0bb37	1.3807133
189	0xbec3f729	-0.38274506
190	0xbd9bd3cd	-0.07608757
191	0x3f423543	0.7586252
192	0x3c90fffc	0.017700188
193	0xbf27cca9	-0.6554666
194	0x3d098576	0.033574544
195	0x3de32290	0.11090577
196	0xbef0046e	-0.4687838
197	0xbd0b9b19	-0.03408346
198	0xbee6c954	-0.45075476
199	0x3e780564	0.24220806
200	0x3e0b8767	0.1362587
201	0x3ee64f0a	0.44982177
202	0xbe807dc1	-0.25095943
203	0x3d62b94e	0.0553525
204	0xbeeb15b8	-0.45915008
205	0x3d909bff	0.07061004
206	0x3de8822d	0.11352954
207	0x3ec73dcc	0.38914335
208	0x3ca6938b	0.020334026
209	0x3e3f7761	0.18697883
210	0xbe9ee48c	-0.31033742
211	0xbcccb54d	-0.024988795
212	0xbe34739e	-0.1762223
213	0xbf5de919	-0.86683804
214	0x3dcd9234	0.10037652
215	0xbf08c44d	-0.5342453
216	0xbf2d70e6	-0.67750394
217	0x3ef1c262	0.47218615
218	0xbe1544fd	-0.14577098
219	0xbe3d2504	-0.18471152
220	0x3e904e08	0.28184533
221	0x3f359776	0.70934236
222	0x3d3b57f1	0.045738164
223	0x3f63f762	0.8904935
224	0xbd7fa925	-0.06241717
225	0x3d2beeb6	0.0419757
226	0x3ebcc542	0.36869246
227	0x3e404058	0.18774545
228	0xbe91637b	-0.2839621
229	0x3df34b86	0.11879639
230	0x3d5bc462	0.053654082
231	0xbcc83666	-0.024440002
232	0x3e3079b3	0.17233925
233	0xbdc9587a	-0.09831329
234	0x3ea06114	0.31324065
235	0x3de5424c	0.11194286
236	0xbc42a103	-0.0118792085
237	0xbe857e85	-0.2607309
238	0xbe17f07a	-0.14837828
239	0x3eeaaa97	0.45833275
240	0xbdb9abee	-0.09065996
241	0xbdc1c9c5	-0.094623126
242	0x3e58f5cd	0.21187516
243	0xbe3028d2	-0.17203072
244	0xbd3c21bd	-0.045930613
245	0x3bafb10e	0.0053616827
246	0x3d9f519a	0.07779236
247	0x3e8d215f	0.27564523
248	0xbd7358e2	-0.059410937
249	0x3e6a8c1b	0.22905008
250	0xbc9bba63	-0.019009775
251	0x3e11bfb8	0.14233291
252	0xbfb5f585	-1.4215552
253	0x3dd68808	0.10475165
254	0x3c0467ce	0.00808139
255	0x3ef0f393	0.47060832

layer3.bias f4 [32]
0	0x3f86c065	1.0527464
1	0xbc94450a	-0.018099327
2	0x3c8061e6	0.015671682
3	0x3f9dfb90	1.2342396
4	0x3e9f361e	0.31095976
5	0x3e6e5be8	0.23277247
6	0x3c7c806d	0.0154114785
7	0x3fc2eaa1	1.5227853
8	0x3faf0517	1.3673428
9	0x3fc54491	1.541155
10	0x3faf478e	1.3693712
11	0x3fce39ca	1.6111386
12	0xbdac5509	-0.08414657
13	0x3f81e6fd	1.0148617
14	0x3e039a9d	0.12851949
15	0x3edd706e	0.4324984
16	0x3d349cba	0.04409478
17	0xbc09ebc1	-0.0084180245
18	0xbdea2b0f	-0.11433994
19	0x3d587b8c	0.0528522
20	0x3b7c57a3	0.0038504384
21	0x3f83fc2a	1.0311329
22	0x3bb0cc46	0.005395445
23	0x3ea1d111	0.31604818
24	0x3fa0ee3b	1.2572702
25	0x3fbfd7bc	1.4987712
26	0x3fc10a63	1.5081295
27	0xbbd7f4db	-0.0065904683
28	0x3eb00aca	0.3438323
29	0x3f8e5b4b	1.112161
30	0xbe3c643d	-0.18397613
31	0xbe08c230	-0.13355327

layer4.weight f4 [4, 32]
0	0xbd7c9548	-0.061665803
1	0xbf06ef8c	-0.5270927
2	0xbf64f65e	-0.89438426
3	0x3dfe577d	0.12419031
4	0x3e51c0f4	0.20483762
5	0x3f01ca9d	0.5069979
6	0xbf365d38	-0.7123599
7	0x3f11cec0	0.569561
8	0x3e99ac27	0.30014154
9	0x3ea1ff76	0.31640214
10	0x3f127da0	0.5722294
11	0x3ee1e8f2	0.44123036
12	0xbdc60796	-0.09669416
13	0x3d05a329	0.032626305
14	0xbeb8192f	-0.35956714
15	0xbf8174e8	-1.0113802
16	0x3d998dae	0.074977264
17	0x3e16bfe5	0.1472164
18	0xbf16e18b	-0.589379
19	0x3dca81ba	0.09888025
20	0x3da6afba	0.08138986
21	0x3b71008b	0.0036774005
22	0x3e33753f	0.17525195
23	0x3dadab43	0.08479931
24	0x3f24789d	0.6424654
25	0x3e637ab1	0.22214772
26	0x3f3dbaac	0.74112964
27	0x3d8e86c1	0.06959296
28	0x3f13e07f	0.5776443
29	0x3eb8dc34	0.36105502
30	0xbcddbdb0	-0.02706799
31	0xbeb26144	-0.34839833
32	0x3e8c371b	0.27385792
33	0xbf4e038e	-0.80474174
34	0x3e8ba5da	0.27274972
35	0x3ebdd8ab	0.37079367
36	0xbe4e3c29	-0.20140137
37	0x3ee06d60	0.43833447
38	0xbed5f18a	-0.41785842
39	0x3e090ad6	0.1338304
40	0x3e32b2d2	0.17451027
41	0x3f052bb7	0.5201983
42	0x3e5a69cb	0.2132942
43	0x3f04d2b7	0.51884025
44	0xbdf7ad27	-0.12093573
45	0xbebc1be6	-0.36740035
46	0x3e38ccf7	0.18046938
47	0xbee98fdf	-0.45617577
48	0xbd1fb31f	-0.038989183
49	0x3d171734	0.036887363
50	0x3e1f3fb7	0.15551649
51	0xbd551376	-0.052020513
52	0xbdc08c7c	-0.09401795
53	0xbe14b928	-0.14523757
54	0x3ddacf1f	0.106840365
55	0x3e09df0d	0.13463993
56	0x3e04d855	0.12973149
57	0x3f1d56ee	0.6146077
58	0x3f419e46	0.7563213
59	0xbd2d2172	-0.042268224
60	0xbf362303	-0.71147174
61	0x3eaf90ba	0.34290105
62	0x3de8f072	0.11373986
63	0x3f178a86	0.59195745
64	0x3ec15037	0.37756512
65	0x3eb6477f	0.35601422
66	0x3e85316e	0.26014274
67	0x3e9f9814	0.31170714
68	0xbf929659	-1.1452132
69	0x3ebd308f	0.3695111
70	0x3f063c81	0.5243607
71	0x3f0aa0cc	0.54151607
72	0x3f0222e9	0.5083452
73	0x3ed15769	0.40887
74	0x3e98c307	0.29836294
75	0x3f0b2dd8	0.54366827
76	0x3d8d413a	0.068972066
77	0x3e1fbe8f	0.15600036
78	0xbf0ad7ba	-0.5423542
79	0x3e1d9e05	0.15392311
80	0xbdeaa921	-0.1145804
81	0xbd65cfc0	-0.05610633
82	0x3eb7934c	0.35854566
83	0xbd8fcb17	-0.07021158
84	0xbe1acab1	-0.15116383
85	0x3ea56571	0.32303956
86	0x3e238ecd	0.15972443
87	0xbf27b47d	-0.6550978
88	0x3eedb3cb	0.46426234
89	0x3f0b2f01	0.543686
90	0x3eb77994	0.35834944
91	0x3e1db95f	0.15402745
92	0x3ddb6839	0.10713238
93	0xbe569f7e	-0.20959279
94	0xbda2848b	-0.07935437
95	0xbea0b370	-0.313869
96	0x3e2bd0c3	0.16778855
97	0x3f88d120	1.068882
98	0x3f66236d	0.89897805
99	0x3eb69057	0.35656998
100	0x3e65d600	0.22444916
101	0x3d9ac52b	0.07557138
102	0x3fbfa18d	1.4971176
103	0x3ed5c95a	0.41755182
104	0x3eeb9596	0.46012563
105	0x3f12c222	0.57327473
106	0x3f17a956	0.5924276
107	0x3ecd5b01	0.40108493
108	0xbd5a5277	-0.0533013
109	0x3e79d77c	0.24398607
110	0x3e8db843	0.27679643
111	0x3c7b90f8	0.015354387
112	0xbe0c9419	-0.1372837
113	0xbd2dda20	-0.04244435
114	0x3e541f5f	0.20715092
115	0xbdd91d9c	-0.10601351
116	0xbdf02cc5	-0.11727289
117	0xbd04bd66	-0.032407187
118	0x3e15d021	0.14630176
119	0xbe69037c	-0.22755235
120	0x3c761c16	0.015021345
121	0x3f0c7f04	0.5488131
122	0x3dfb1fbe	0.12261914
123	0x3d6d686a	0.057960905
124	0xbf089aac	-0.5336101
125	0x3effa606	0.49931353
126	0x3e0b5d55	0.13609822
127	0x3f53f289	0.82791954

layer4.bias f4 [4]
0	0x3fb30c00	1.3988037
1	0x3f7bc9ed	0.9835499
2	0x3f8e6d4a	1.1127102
3	0x3f7f438c	0.99712443
