reinforcement_learning/dqn_snake/model_parameters_no_discount.pth (torch, 42748 bytes, 7 tensors)

layer1.weight f4 [1, 1, 5, 5]
000000 7a 59 46 3d 3e 2a 9e 3e b6 8a 88 3e dc 50 07 be
       0.048425175 0.30891603 0.26668328 -0.13214439
000010 ca 57 56 3c 50 7a a5 3e 0d 29 9b 3d fb 32 1c be
       0.013082454 0.3231988 0.07576189 -0.15253823
000020 74 64 8e 3e dd 3b 0f be 95 06 fc 3c 46 1d 1f 3c
       0.27811015 -0.1398768 0.030764857 0.009711569
000030 86 44 0f be 83 eb 6d 3e 8d 41 59 3c ef f1 51 bd
       -0.13990983 0.23234372 0.013260257 -0.051256116
000040 a1 dd 16 be d4 14 af 3c 42 51 07 be 63 1d 91 3d
       -0.14732982 0.021372236 -0.13214591 0.07085683
000050 6a 8d 95 3d 91 79 f7 3e 45 88 58 bd 3c 82 28 be
       0.07302363 0.48334935 -0.05286433 -0.1645593
000060 f5 e6 e3 bd
       -0.11128036

layer2.weight f4 [128, 9]
000000 ee 72 a1 be 83 06 30 be 93 e3 fd be 7c d4 8e 3e
       -0.31532997 -0.17189984 -0.49587688 0.27896488
000010 81 37 83 3e 33 5b 13 be 6e 89 ef 3e 50 e8 14 bf
       0.25628284 -0.14390258 0.46784538 -0.5816698
000020 7b e8 33 be de e0 37 be a0 f5 49 bd ca 04 81 be
       -0.17569153 -0.17956874 -0.049306512 -0.25198966
000030 9c 59 98 bd 1b f1 60 be cb 50 9d be b5 ed 85 3e
       -0.07438967 -0.21966974 -0.30725703 0.2615792
000040 b8 25 78 bd a0 41 48 3e 1c 9a ab be 13 cc 89 3d
       -0.060582846 0.19556284 -0.33516014 0.06728377
000050 e1 32 2b be cc 04 6f 3e 44 13 63 bd 75 d1 2c 3e
       -0.16718628 0.23341674 -0.055438295 0.16876777
000060 f1 df 82 3e ef c8 d3 bd 20 55 18 3e 99 a3 2d 3f
       0.2556148 -0.103410594 0.14876223 0.67827755
000070 14 02 fb 3d b0 a5 ae be d3 96 a4 be 46 9e 04 3f
       0.12256256 -0.34110785 -0.3214632 0.51804006
000080 24 34 3e 3f 3e 52 7d 3e 72 63 c2 3d 24 49 2c 3e
       0.7429831 0.24738404 0.09491624 0.16824776
000090 10 d8 19 be c2 45 33 3e f8 2c 48 3d aa 28 5e 3e
       -0.15023828 0.17507079 0.04887101 0.216952
0000a0 9c 07 a1 be 84 72 bf 3d 62 63 50 3e 18 fb 37 be
       -0.31451118 0.09348014 0.20350412 -0.17966878
0000b0 78 fd 61 3d bd 72 75 be 7e b3 a3 3e 87 1f e8 bd
       0.055173367 -0.2396955 0.3197288 -0.11334138
0000c0 61 48 52 3e 20 59 88 3e 8e d3 af be 75 2c 4e be
       0.20535423 0.26630497 -0.3434109 -0.20134147
0000d0 45 67 0a be c8 f7 74 be 44 d7 5f 3e 2e 4b ee bd
       -0.13515957 -0.23922646 0.21859461 -0.11635433
0000e0 a6 41 f4 3c 22 63 0c 3c f9 46 04 3d 88 a6 8b 3d
       0.02981646 0.008568557 0.032294247 0.06818873
0000f0 1f 61 71 3e b2 2c 96 3d 32 d9 11 be 0e 8f f9 bd
       0.23572205 0.07332744 -0.1424301 -0.12185489
000100 a7 57 3c 3e 7a 4a 52 3e 59 41 56 3e da 93 0e be
       0.18392812 0.20536223 0.20923366 -0.13923588
000110 7c f9 79 be 07 70 70 3e 36 38 4b be b3 72 9f be
       -0.24411577 0.23480235 -0.19845662 -0.31142196
000120 bf 29 df bd b3 1d 1a be 46 c8 b3 be 37 87 53 be
       -0.10896634 -0.15050392 -0.35113734 -0.20657049
000130 11 30 17 be 54 94 c2 bd 6d ee a5 be 12 4d b4 3d
       -0.1476443 -0.095009476 -0.32408467 0.088037625
000140 89 ee 9f 3d 4a 87 de be 4e ca 93 be 65 a0 06 bf
       0.07809169 -0.43462592 -0.28865284 -0.5258849
000150 66 96 87 be be 14 fc bd d4 d1 00 bf 92 61 8f be
       -0.26481932 -0.12308644 -0.5032017 -0.28004128
000160 9a 81 6d bd f4 ee 38 be 5f 4a 5a bd cc 9d 65 3e
       -0.057984926 -0.18059903 -0.053293582 0.22423476
000170 03 80 ae 3e ef 91 c2 3e 4a e2 2a 3e 91 15 65 bd
       0.3408204 0.38001963 0.16687885 -0.05592877
000180 9b 27 50 be 72 88 3e bd e8 6b 40 be bf 12 85 be
       -0.20327608 -0.046516843 -0.18791163 -0.25990865
000190 60 0d b6 bd 58 8d 7b 3d cb ca 22 be dc c5 c1 bd
       -0.0888927 0.061414093 -0.15897672 -0.09461567
0001a0 c0 c9 10 be 20 7f 08 3d 9e 52 07 3e fe 8c 09 3e
       -0.14139462 0.03332436 0.1321511 0.1343269
0001b0 fe 4b 85 be be 42 ed 3d 16 de e7 bd 79 a8 73 be
       -0.2603454 0.11584996 -0.113216564 -0.23794736
0001c0 12 6e 56 be 26 4b ca be 91 c2 a2 3e 78 30 31 3d
       -0.20940426 -0.3951046 0.31789067 0.043259114
0001d0 82 84 99 be 76 af 7e be 5c 08 a4 bd 00 cd 61 3c
       -0.29983908 -0.2487162 -0.08009407 0.013781786
0001e0 a6 83 05 be fa dd c3 3d 2e 17 21 be 00 60 7d b8
       -0.13038501 0.09563823 -0.15731499 -6.0409307e-05
0001f0 1e cd 04 be de ed a9 be 46 4a 83 3d 05 43 af be
       -0.12968871 -0.3318929 0.06410651 -0.3423082
000200 1f a7 54 bd c8 4f 1e 3d d5 a7 d0 3d 09 52 e8 3b
       -0.05191719 0.038650304 0.101882614 0.0070898575
000210 86 86 47 be 12 09 a0 be e3 fb 31 be 85 eb 90 bd
       -0.1948491 -0.3125692 -0.17381243 -0.07076172
000220 ab 63 ba 3d c9 3b 34 3e 9e df 22 3e ae e2 fe 3d
       0.091010414 0.17600931 0.15905616 0.124455795
000230 24 15 86 3d 32 66 8a 3e 4b 1f d7 3d 65 c3 9f 3d
       0.06547001 0.27031094 0.105040155 0.078009404
000240 8e 81 cb be 80 1c 47 be f5 bb 9b 3c 86 f4 04 bf
       -0.3974728 -0.19444466 0.019010523 -0.51935613
000250 59 1a bd 3e 1d bd 48 3e 55 5f 5a 3f 74 21 fc bd
       0.36934164 0.19603391 0.85301715 -0.12311068
000260 7d 38 c5 bd de ae 61 be 68 7f 1b 3e 3b 29 13 3e
       -0.09629915 -0.22039363 0.1518532 0.14371197
000270 9b 70 11 3e bf 7a 8a 3e 84 c1 9a bd ce 67 97 3e
       0.14203112 0.27046773 -0.075564414 0.29571384
000280 9d d3 df be d6 7b 88 be 65 e8 bc bc 41 f3 0c 3f
       -0.43716136 -0.2665698 -0.023060033 0.55058676
000290 93 f0 9e 3e 79 c2 4b 3e 16 c7 33 3e 38 fd 96 be
       0.3104292 0.19898404 0.17556414 -0.29490066
0002a0 39 8e ac 3e 05 31 f9 be b6 68 0c bf ba e6 9b 3b
       0.33702257 -0.4867021 -0.54847276 0.0047577294
0002b0 18 ca 98 bd 14 60 d8 be 62 c3 ac 3e 90 15 18 3e
       -0.07460421 -0.42260802 0.33742815 0.14851975
0002c0 13 07 a9 be 88 18 bc bd 16 e1 a8 3e cb 3d 67 3d
       -0.3301321 -0.091843665 0.32984227 0.056455415
0002d0 d6 13 9b be dc f3 3c be 71 de 4b bc dc b0 93 be
       -0.3028857 -0.184524 -0.012443171 -0.2884587
0002e0 35 d6 cf 3c ae 63 86 be 5a 84 78 3e 0e fc c7 3d
       0.025370697 -0.26247925 0.24269238 0.097648725
0002f0 d6 93 a9 be a4 46 9e 3c b2 29 ad 3e 4b d2 e9 3e
       -0.33120602 0.019320793 0.33820873 0.45668253
000300 33 51 0f be 83 ec de bd bd e0 7f be 46 fd 6e bd
       -0.13995819 -0.10884955 -0.24988075 -0.05834701
000310 49 01 61 be b4 da 01 3d 29 ed f7 be 8c 96 6c 3e
       -0.21973146 0.031702712 -0.48423126 0.23104304
000320 3d 57 de bd a3 fb b0 bd ee 17 10 3d fd d6 f9 3e
       -0.10856483 -0.08641746 0.03517907 0.48796836
000330 46 a6 d9 bc 55 28 9e be 86 16 b7 3d 88 77 22 3e
       -0.026568543 -0.30890146 0.08939843 0.1586591
000340 1c e9 d2 bd 63 a9 df be 86 b1 64 3e 05 84 1a 3e
       -0.10298368 -0.4368392 0.22333345 0.15089424
000350 9c b3 57 be 49 5f 3e ba 82 2c c4 bd 9c 9b 55 be
       -0.2106461 -0.00072621234 -0.09578802 -0.20860142
000360 73 c6 b8 bc 80 74 60 3e 61 dd c2 be 8d 39 d5 3e
       -0.022555565 0.21919441 -0.38059524 0.4164547
000370 9b 26 ec 3d a3 c8 81 be 59 de d8 bd ec 43 aa 3e
       0.11530801 -0.25348386 -0.105892844 0.33254945
000380 79 86 20 be 7b b3 18 be f3 34 4e be 1e ab 06 be
       -0.15676297 -0.14912216 -0.20137386 -0.13151214
000390 86 39 dc bd 17 c9 8b 3e 77 8a ac be bb 60 11 be
       -0.10753159 0.27301857 -0.3369939 -0.14197056
0003a0 b6 e1 37 3e 44 b0 99 be 68 34 8b 3b 43 11 3f bd
       0.17957196 -0.30017292 0.0042481907 -0.04664732
0003b0 00 be e3 bd 95 75 9f 3d e9 b0 44 be 2c a1 be 3d
       -0.11120224 0.07786099 -0.19208111 0.09308085
0003c0 1a ed f2 3e 83 40 08 3d ed 07 76 bd 20 45 be 3d
       0.4744652 0.03326465 -0.060066152 0.09290528
0003d0 d5 78 6d be 7c 38 95 3d b8 8e ab 3d cb 42 3a be
       -0.23190625 0.07286164 0.08376831 -0.18189542
0003e0 11 3e 11 be 21 57 40 3e 55 08 e2 be 75 f6 45 be
       -0.14183833 0.18783237 -0.44146982 -0.19332297
0003f0 c5 60 d9 be 9e ed d4 bd c1 18 aa 3e 0e 5e 40 bf
       -0.42456642 -0.103968844 0.3322201 -0.75143516

layer2.bias f4 [128]
000000 a6 32 ed bc 19 e4 59 be 42 8e b3 be 09 da d2 bc
       -0.028954815 -0.21278419 -0.35069472 -0.025738733
000010 ea 84 8d be 7f 20 b3 3e 07 0c 87 be 00 36 2b 3e
       -0.27640468 0.3498573 -0.26376364 0.16719818
000020 1e 4c bb 3c 81 2e 65 bd 92 40 5a 3e 6e 46 68 be
       0.022863444 -0.055952553 0.21313694 -0.22683117
000030 5b a8 0b 3e ff 34 7f be 68 34 e4 bd 8b a6 a6 be
       0.13638441 -0.2492256 -0.11142808 -0.32548937
000040 0e 35 ea bd 91 cf f8 3c 84 2c ca 3d 9a d4 d5 bc
       -0.11435901 0.030372413 0.09871772 -0.026102353
000050 c8 d8 c2 3d 6f 95 81 bc f7 53 12 be fc 00 a0 be
       0.09514004 -0.015818326 -0.14289843 -0.3125075
000060 6c a7 07 3d e2 f1 9c be e9 01 99 be 68 e1 0d 3e
       0.03311865 -0.30653292 -0.2988427 0.13855517
000070 e3 f1 67 3e 20 64 a0 be 0c 1d 88 bd 78 53 29 be
       0.22650866 -0.3132639 -0.06646165 -0.16535747
000080 79 7e 2c 3e b2 70 84 3e 1a 5a a1 be 28 3f 86 be
       0.1684512 0.2586723 -0.31514055 -0.2622006
000090 a7 ca 95 be 40 dc 97 be 67 06 6f 3e 1e e5 49 be
       -0.29256174 -0.29660225 0.23342286 -0.19716308
0000a0 06 b5 3f 3d ae b1 11 be 61 e2 dc 3d e4 d0 80 3e
       0.046803497 -0.14227936 0.10785366 0.2515937
0000b0 ca 29 51 3e 53 4e 77 be 64 22 41 3e 18 06 77 3e
       0.20426098 -0.24150972 0.18860775 0.24123418
0000c0 02 68 e8 3d 23 7f 8f be ca 3a ca 3e b8 30 28 be
       0.11347963 -0.28026685 0.39497977 -0.16424835
0000d0 5b 6b b0 3e 1e 67 53 be 9b 32 b2 3e d3 52 3e be
       0.34456906 -0.20644805 0.34804234 -0.18586282
0000e0 ed 7a 38 be 66 65 be 3d f6 f3 60 3e c8 fa 8d be
       -0.18015642 0.09296684 0.21968064 -0.27730393
0000f0 d2 5d dc 3d 37 cb 82 be bd c3 0c bd f6 6e 83 be
       0.10760082 -0.25545666 -0.034366358 -0.25670594
000100 52 58 25 3e 62 ee b3 bd 5a 1f 9f be 97 65 81 3d
       0.16146973 -0.08785702 -0.31078607 0.06318205
000110 c3 29 a1 be 66 12 9c be 4f 2f 04 3e 99 8e d4 3d
       -0.31477174 -0.30482787 0.12908672 0.10378761
000120 a3 25 52 3e 91 30 4c 3e aa 59 32 3e 0d 71 4f be
       0.2052217 0.19940402 0.17417017 -0.20257969
000130 e6 e0 7d be de d1 49 3e ab d7 94 be 10 e4 8f be
       -0.24792823 0.19708964 -0.29070792 -0.28103685
000140 e2 2b 2f be f8 a2 8b 3e 4d dc 06 bd f8 3b 30 3d
       -0.17106584 0.27272773 -0.03292494 0.04302594
000150 d9 6c 8f 3d 6d 4b d7 be 03 25 46 3d a3 4e 9a bd
       0.07003183 -0.42049733 0.04837514 -0.0753453
000160 40 fa c8 bd 27 a5 b1 be ad 03 99 3d 4c db df 3d
       -0.098133564 -0.34696314 0.07471404 0.109304994
000170 99 e3 6a be 94 17 7f be fa 49 01 3e 0c 60 17 bd
       -0.22938384 -0.24911338 0.12625876 -0.03695683
000180 5e 3a ee bd 88 06 93 be cd 28 42 be cd 89 19 3e
       -0.116322264 -0.2871592 -0.18960877 0.14993973
000190 c7 46 0f 3e 4f 1e 94 bc f9 99 54 be bd 22 63 be
       0.13991843 -0.018080859 -0.20761861 -0.2218122
0001a0 e0 43 ee 3d 44 83 98 be 36 9b b0 3d a3 d4 c9 bd
       0.1163404 -0.29787648 0.08623354 -0.0985501
0001b0 38 97 85 3e 58 0e 4e 3e 0a 1c 5f be 1e 34 04 3e
       0.26091933 0.20122659 -0.2178804 0.12910506
0001c0 b6 88 7f 3e 0b 21 d1 be 1d 3d af 3d 84 3f a9 be
       0.24954495 -0.40845522 0.08556578 -0.3305627
0001d0 c1 aa 6e 3e 04 09 a8 3e 7d ce 42 bd 7d 98 75 3e
       0.23307325 0.32819378 -0.047560204 0.23983951
0001e0 90 85 9d bd 41 7c 1e 3d 46 26 a1 3d a5 51 97 be
       -0.07691491 0.038692717 0.07868628 -0.29554477
0001f0 47 5b 90 3d f1 97 38 be b8 02 92 bd 9b cb 99 be
       0.0704866 -0.18026711 -0.07129425 -0.3003815

layer3.weight f4 [64, 128]
000000 29 2e 19 bd 87 1f fa 3c b6 d0 47 be 87 ae f3 be
       -0.037397537 0.030532612 -0.1951321 -0.4759409
000010 c6 a5 3f bd b6 82 ee 3d 25 10 da 3d 14 64 13 3e
       -0.046788953 0.11646025 0.106476106 0.14393646
000020 88 62 bc bc bf 51 0d 3d fb dc 18 3e 88 a5 8d bd
       -0.022996202 0.034501787 0.14928047 -0.06916338
000030 cb 14 a9 bc f2 89 8a bd 9a 20 a7 bc 9c 36 ef 3d
       -0.020639798 -0.06764592 -0.020401288 0.11680338
000040 77 09 c9 be 51 f7 5c bd bf d1 3f 3e 45 a6 75 bd
       -0.39265034 -0.053946797 0.18732356 -0.05997302
000050 a7 9b 54 3d 6c b9 c8 3e ff 6a 19 be a0 39 f7 bd
       0.051906254 0.39203966 -0.14982222 -0.12071538
000060 62 75 8d bd 1e 86 25 3c 07 67 85 be 90 ca 37 3d
       -0.069071546 0.010102777 -0.26055166 0.044870913
000070 e8 1b 73 3e d8 3b 50 be 46 5e b8 be a0 4f 82 3c
       0.23741114 -0.20335329 -0.36009425 0.015907109
000080 f8 be 3c 3e 98 0d 31 3e fe d4 05 bd 8b f3 36 be
       0.18432224 0.17290342 -0.03267383 -0.17866342
000090 f5 42 87 bd 7d a1 b1 bd eb 26 a9 3d b7 15 6c be
       -0.06604568 -0.086733796 0.08259376 -0.23055159
0000a0 fc 28 9c bd bf 36 a7 3d b1 1b 0b 3d a8 53 45 3e
       -0.07625005 0.08164739 0.033961955 0.19270194
0000b0 28 81 2f 3e e6 94 10 3e 5b 3f 8f 3d 1d b3 6b 3e
       0.17139113 0.141193 0.06994506 0.23017545
0000c0 57 3a 0b 3e a9 f4 41 be a0 b8 9f 3e 4a a8 93 be
       0.13596474 -0.18940987 0.31195545 -0.28839332
0000d0 c8 b1 5f 3e 72 1a 18 bc e5 0d 81 3e 12 86 15 be
       0.21845162 -0.009283649 0.25205913 -0.14601925
0000e0 59 25 b4 bd 0a d3 dc 3d 97 b8 a1 3d 44 ed c7 3c
       -0.08796186 0.1078244 0.07896536 0.02440513
0000f0 aa 23 5a 3e df d7 8d 3d 9c 7f f6 bd 7b fc 09 3e
       0.21302667 0.0692594 -0.12036058 0.1347522
000100 d9 dc 11 3e 10 43 8a be a0 fa ae 3c 30 ef 36 bc
       0.14244403 -0.2700429 0.021359742 -0.011165425
000110 a8 1f 28 3b aa cb 96 bd db 6c ab 3d 0c 15 20 3d
       0.0025653634 -0.073630646 0.08370372 0.039082572
000120 6e ac 49 3b 7a 36 82 3e c8 b4 70 3e b9 9f 5c 3d
       0.0030772942 0.25432187 0.23506463 0.05386326
000130 2e dc 59 be 45 6e 52 3e 38 df 69 bc 69 62 42 bd
       -0.21275398 0.20549877 -0.014274411 -0.047457132
000140 35 bd b8 bd dd 7e 82 3a 52 f0 86 bd 60 42 98 be
       -0.090204634 0.0009956021 -0.06588806 -0.2973814
000150 14 1c 61 be d7 12 88 bd b0 3f 06 bd 2e 50 80 3d
       -0.21983367 -0.066442184 -0.03277558 0.06265293
000160 95 6c 48 be ba 26 6f 3d f2 7a 73 3c 87 65 99 3e
       -0.19572671 0.058386542 0.014860855 0.29960272
000170 b3 00 6e be 18 62 36 bd bb 59 89 3e 04 81 a8 bd
       -0.23242454 -0.044527143 0.2682627 -0.08227733
000180 fb e3 b7 3d 2b 8d 93 3d c4 a8 1e bd be 64 32 3e
       0.08979031 0.0720466 -0.038735166 0.17421243
000190 74 59 4e 3e cd 2d 94 be 8e 56 5b 3d 24 52 19 be
       0.20151311 -0.28941193 0.05354934 -0.1497274
0001a0 2e 5d 2f 3d 4e 61 97 3d 25 02 a5 3e 90 be 05 3e
       0.042813472 0.07391606 0.322282 0.13060975
0001b0 59 ae 05 3e d4 97 7c 3e fe b2 a3 bd 19 8e a6 3d
       0.1305479 0.24667293 -0.079931244 0.08132572
0001c0 e6 5b 7a 3e e1 fc 07 be ec cf 16 bd 6d cd 3c 3d
       0.24449119 -0.1328006 -0.036819384 0.046094347
0001d0 31 9b 3f 3e 7c cd 4e 3e 6f 7e 8a 3d 58 88 8b 3e
       0.18711545 0.20195574 0.067623965 0.2725246
0001e0 eb 2d aa be b2 af 8e b9 95 5d 06 3e 1f f7 e9 bd
       -0.33238158 -0.00027215254 0.13121636 -0.11424088
0001f0 97 a8 92 3d 53 32 76 be 8f 06 54 be ae be 03 be
       0.07161062 -0.24042635 -0.20705627 -0.12865707
000200 ff d6 d1 bc 20 f5 ad bd 32 e0 4d 3d 60 b6 86 bc
       -0.025615213 -0.084940195 0.050262637 -0.016444385
000210 80 15 e7 ba fb 59 56 3c 12 dc 3b 3d 8f cd 0b 3c
       -0.0017630309 0.013082976 0.045864172 0.008532896
000220 0f 88 d7 3c 7e 02 43 3d a9 71 a3 bb 97 7b 5f bd
       0.026309995 0.0476098 -0.0049879146 -0.054561224
000230 ab 21 d5 bd 24 51 da bc 24 49 ef 3c c4 fe 3c bd
       -0.10406812 -0.026650019 0.02920968 -0.0461414
000240 3a ee 11 3d 47 46 47 3c 72 fb c0 bd b9 5c b4 bc
       0.03562758 0.0121627515 -0.094229594 -0.02201687
000250 45 cf 97 bd 65 54 84 3d 55 43 27 bc 1f 99 ac 3d
       -0.074125804 0.064614095 -0.010208924 0.08427643
000260 20 f9 95 3c 8b a7 97 3d 4b 53 11 bd cc 83 91 bd
       0.018307269 0.07405003 -0.035479825 -0.071052164
000270 09 89 8e bc 24 e4 ff bc d0 72 db 3c b1 80 57 bd
       -0.017399328 -0.031236716 0.026788145 -0.052612964
000280 37 de ee bd ef bd fe bc 50 94 d0 3c f9 68 c6 3c
       -0.11663478 -0.031096427 0.025461346 0.024219977
000290 b8 d6 2f bc d1 da 15 bd 61 77 d9 bd 2d 14 02 bd
       -0.010732345 -0.036585633 -0.10618473 -0.031757522
0002a0 c5 e2 16 bd d5 47 85 3d 0d 8b 34 3c 41 c0 fc bd
       -0.036837358 0.065078415 0.01101948 -0.12341357
0002b0 9c 1d fb 3c 1c 08 86 3c e0 43 c7 bd 73 d6 49 bd
       0.030653767 0.016361289 -0.09729743 -0.04927678
0002c0 90 90 41 bd f4 a7 88 bc 44 04 40 bd c8 53 e9 bc
       -0.047257006 -0.016681649 -0.046879068 -0.028482333
0002d0 d0 8c 08 be 59 fd a8 3d 9c 71 d8 bd 95 7f a1 bc
       -0.13334966 0.08251447 -0.10568544 -0.019714156
0002e0 bd 48 9c 3d 4f cb 88 bb 67 46 01 be 60 85 8b 3b
       0.07631061 -0.004174627 -0.12624513 0.004257843
0002f0 e8 61 0b be cc 01 a7 bc f3 20 22 3c 6c 66 9b 3c
       -0.13611567 -0.020386599 0.009895551 0.018969737
000300 17 4c 02 be d4 43 8a bc 28 61 b4 bd be c0 c2 bd
       -0.12724338 -0.016878046 -0.088075936 -0.09509419
000310 3e 94 76 3d 4e 17 59 3d 91 16 19 bd d6 20 90 bd
       0.06019997 0.05300074 -0.037375037 -0.07037513
000320 38 d5 91 bd 39 87 03 3d 2d f8 d5 bd b6 a8 18 3d
       -0.071207464 0.03211138 -0.104477264 0.03727027
000330 5b 6a 6d bd aa b6 37 bd 8c 69 c5 3c 80 20 39 3c
       -0.057962757 -0.044851936 0.02409818 0.0112992525
000340 7e ad 28 bd d6 90 f0 bd 77 54 99 bd 57 b5 87 bd
       -0.04118108 -0.11746375 -0.074868135 -0.06626385
000350 ee 79 44 3d 52 3c 99 bd 27 8a a2 bd 1a 3c b0 bd
       0.047967844 -0.07482208 -0.07936507 -0.086052135
000360 e3 5c 89 3d 38 bc df 3c 56 22 01 bd da 30 d3 bd
       0.0670717 0.02731143 -0.031526886 -0.10312052
000370 80 0b 4d 3c 79 32 b4 bd c7 c6 43 bd 29 45 23 bd
       0.012514949 -0.087986894 -0.04779699 -0.03986088
000380 78 f9 a9 3c b8 ad a4 bd 38 c1 b6 bc 06 56 f8 bd
       0.020748839 -0.08040947 -0.02230893 -0.12125783
000390 b8 da 8a bd 9c e1 96 bd 84 50 6f bd 29 af 25 3b
       -0.067799985 -0.0736725 -0.058426395 0.0025281406
0003a0 86 1b da bc 51 47 a9 3d 5d 67 42 bd 64 1a 85 bd
       -0.026624452 0.08265556 -0.047461856 -0.06499174
0003b0 6e ba 7c bc 9a 08 11 be 19 89 99 3d fa 3c 0b be
       -0.015425308 -0.14163437 0.074968524 -0.1359748
0003c0 c8 27 98 3b f4 37 ca 3c 4a 86 0f be 04 64 b3 bc
       0.004643414 0.024684884 -0.14016071 -0.021898277
0003d0 fe b3 46 bd b6 cf d5 3c 12 c0 8b bd 92 6b dd bd
       -0.048511498 0.02610002 -0.06823744 -0.10811533
0003e0 cd b2 a5 3c df f9 71 3c 52 fc 0a be 0d 90 95 3d
       0.02022686 0.014769047 -0.13572815 0.07302866
0003f0 44 dc 31 bc 38 fd 81 bc ec c9 cc bc 8b 9e cd bd
       -0.010855738 -0.015867814 -0.024998628 -0.10040005

layer3.bias f4 [64]
000000 ce d9 81 3e 63 fd 21 bb a5 1e 26 3e 26 fb 2b be
       0.25361484 -0.002471768 0.16222627 -0.16795024
000010 34 83 68 3d 56 65 fb bd 63 66 59 bd a5 97 83 bd
       0.05676575 -0.12275188 -0.05307616 -0.06425408
000020 ab 52 11 bd a0 fb 5f bb 20 3f e7 3d 09 ba a0 3d
       -0.03547923 -0.003417708 0.11291337 0.078479834
000030 af 1c 1e be 68 d4 e2 3c 4d 1b ce bc 60 14 56 39
       -0.1544063 0.027689174 -0.025159502 0.0002041622
000040 2e ff f8 bd af 55 9a be 52 1a c7 3d 56 a0 39 3e
       -0.12158047 -0.30143496 0.09721817 0.1812757
000050 92 50 3e 3e ff 18 8b 3c 40 5f ca bd 5a 82 0b bd
       0.18585423 0.016979693 -0.09881449 -0.03405986
000060 8a 22 57 be 46 a7 8f 3d 40 eb a0 3c a2 09 b4 3c
       -0.2100927 0.07014327 0.019643426 0.02197725
000070 dd e8 b2 bd 80 d2 03 be 34 96 06 bd 63 cc 05 3d
       -0.087358214 -0.12873268 -0.03285809 0.03266562
000080 7d 1f 2b be 32 82 6e be e9 e1 e7 bd 9a 1c 79 be
       -0.1671123 -0.23291853 -0.11322386 -0.24327317
000090 64 bd 04 be 97 11 dd bd a5 19 b1 3b cf 45 01 3e
       -0.12962872 -0.107943706 0.0054046684 0.12624286
0000a0 68 fd 23 bd cf d9 00 3e cc 5b 64 3e 00 6d 23 bd
       -0.04003659 0.12583087 0.22300643 -0.039898872
0000b0 af ac 94 3e 0a 2f a2 bd 51 84 54 3e 8d 15 b2 bd
       0.29037997 -0.07919128 0.207536 -0.08695517
0000c0 21 03 93 bd fa 99 28 3e 44 d4 d2 bd b2 94 b2 bd
       -0.07178331 0.16464987 -0.10294393 -0.08719768
0000d0 9e ad ae 3c 5f 0b a5 bc 23 95 53 be da 04 28 bc
       0.021323022 -0.020147024 -0.2066236 -0.010255063
0000e0 3e d6 10 3c c4 11 51 3c 92 a6 a8 bd bd 22 c5 3c
       0.008840142 0.012760583 -0.08234896 0.024064416
0000f0 f3 70 2f bd 67 5e 62 bd 4b 04 0a be dd 8c ea bc
       -0.042832326 -0.05526581 -0.134782 -0.028631622

layer4.weight f4 [4, 64]
000000 15 b8 48 3e 80 a7 66 bd 14 a7 f9 3c 0f d8 94 3b
       0.19601472 -0.056312084 0.030475177 0.0045423578
000010 d0 7f 98 3c 3a 25 81 3d 27 f5 04 3d 90 80 eb bd
       0.018615633 0.063059285 0.032460358 -0.11499131
000020 a4 e7 a4 3d f0 d2 03 bd bf 57 0d 3d d3 de ff bc
       0.080519944 -0.032183588 0.03450751 -0.03123418
000030 28 7a c9 bc b4 91 12 bd 0a 8e d8 3d 43 aa f1 3c
       -0.024594381 -0.035783485 0.10573967 0.029500132
000040 1e 5c ea 3d 69 89 23 3e 6a 0f cc 3d cd 44 19 3e
       0.11443351 0.15970387 0.099638775 0.14967652
000050 15 2b f2 3d 80 0b 19 3e 83 30 0c 3c 60 cf 55 3d
       0.118246235 0.14945793 0.008556488 0.05219972
000060 cb b7 3a 3d 86 cd 85 3d c0 59 18 3e f4 22 0a 3e
       0.045585435 0.06533341 0.14877987 0.13489896
000070 e5 22 62 3d dc 4f 7d bd 98 e2 9e 3d 74 fa c1 3d
       0.05520906 -0.061843738 0.07758063 0.09471598
000080 d4 49 8a bd b3 c1 ae bc 5c cd 03 bd a8 a4 fe 3d
       -0.06752363 -0.021332597 -0.032178268 0.124337494
000090 c2 55 f7 bd 29 88 b4 3d f3 99 d5 bc 78 aa e6 bd
       -0.12076904 0.08815033 -0.026074385 -0.11262983
0000a0 60 f6 ef bd 94 66 53 3d 09 9a 0e 3d a1 fd a9 3d
       -0.11716914 0.051611498 0.034814868 0.08300329
0000b0 1c 72 65 3e a8 91 f3 bd 5f 56 0d 3e 66 a1 89 bd
       0.2240681 -0.11893016 0.13802479 -0.067202374
0000c0 82 78 8c bd a6 92 9d 3d a4 bd c5 3d 98 ba 64 bd
       -0.068589225 0.076939866 0.09655312 -0.055842012
0000d0 72 d7 de 3c 3a 55 99 bd 11 f0 68 3c 98 2d a9 bc
       0.027202342 -0.07486959 0.014217393 -0.020651624
0000e0 20 82 86 bb 91 0a 52 bd 5c a7 50 3d cf fb ad 3d
       -0.0041048676 -0.05127961 0.050940856 0.08495294
0000f0 dc 3a 85 3d de 21 bd 3d 8a 17 00 3e 5f 14 c0 3b
       0.06505367 0.09234975 0.1250898 0.0058618034
000100 16 f7 65 3e d0 f0 c2 3d a2 15 29 3e c7 fe 9b bd
       0.22457537 0.095185876 0.16512159 -0.07616954
000110 4f 6b 25 be 5a 55 27 bd a3 44 7f 3d 0c c8 98 3d
       -0.16154216 -0.040852882 0.062321316 0.07460031
000120 07 20 9b bd 0c fc dd bd 3b f1 00 3e 60 4d 9e 3e
       -0.07574468 -0.1083909 0.12592022 0.30918407
000130 0b 07 45 3d 9c 72 33 bc b8 9d ea bc 1e ce 2c be
       0.04810242 -0.010952618 -0.02863966 -0.16875502
000140 a6 12 05 bd 82 08 a4 bd 21 94 2b 3e df 21 8a 3d
       -0.032488488 -0.08009435 0.16755725 0.06744742
000150 60 91 3c 3e 7a 29 bb bd e6 fc 67 3d c8 6d 3e bc
       0.18414831 -0.091387704 0.056637667 -0.011622854
000160 0a 9f ba bd 7f 50 18 3d 99 a4 3e bd e6 63 8b bd
       -0.091123655 0.037186142 -0.04654369 -0.068061635
000170 ae 21 b0 3b 06 38 10 ba 55 a5 75 bc 00 66 9f 3d
       0.0053751087 -0.0005501512 -0.0149930315 0.07783127
000180 38 19 af bc cf d0 21 3d 6f 2e 1a bc af be c7 bd
       -0.02137433 0.039505776 -0.009410485 -0.09753167
000190 8c 66 b4 bd ee c4 ad bd 0d c2 0a be f9 81 6d 3d
       -0.08808622 -0.08484827 -0.13550587 0.05798528
0001a0 e0 a1 e9 3b 21 0c 20 3e 30 8e 11 3e 68 ff ca 37
       0.0071298927 0.15629627 0.14214396 2.419921e-05
0001b0 d5 59 8c 3e 2c 38 36 bd 34 f6 33 3e dc 35 3b bd
       0.27412286 -0.044487163 0.17574388 -0.04570566
0001c0 0a c1 b1 3d c0 78 12 3e d7 a0 00 bc 76 92 da 3d
       0.086793974 0.14303875 -0.007850847 0.106724665
0001d0 89 4a c4 bc 18 03 82 3c 1d e4 0b 3e 93 37 2e 3e
       -0.023961322 0.015870616 0.13661237 0.17013387
0001e0 66 af de 3d 46 ec a8 bd ac 2a c8 3d 6a 6e 9d 3d
       0.10873298 -0.082481906 0.09773764 0.076870754
0001f0 3a 5b 16 3d ae a4 da bc 45 d4 89 3d 93 fd 80 bc
       0.036708094 -0.026689854 0.0672994 -0.015745914
000200 9c 75 93 3e e8 58 c9 3d b4 86 ee 3d 6f c3 72 3e
       0.28800666 0.09831411 0.11646786 0.23707364
000210 c3 78 98 3c 82 03 fa bd 50 d7 fb 3d f0 4e 7b 3d
       0.018612271 -0.122077 0.12296927 0.061354578
000220 72 2c df 3d ac 38 af 3d 2c ce 07 3e dc eb 5f 3e
       0.10897149 0.08555731 0.13262242 0.21867317
000230 94 60 47 3d fc 3b ba bd 15 f4 7f bc 60 a7 fa bc
       0.04867609 -0.09093472 -0.015622159 -0.030597389
000240 60 e7 d6 bd 94 34 e3 bd b4 7e 47 3e 31 5f 13 3e
       -0.1049335 -0.11094013 0.19481927 0.14391781
000250 11 3b a0 3e ed 93 10 bc 83 14 0b 3e 93 75 14 be
       0.31295064 -0.008824331 0.13582043 -0.14497976
000260 8a 47 99 bd 18 47 84 3e b3 91 3a 3d 0c 02 3b 3e
       -0.07484348 0.2583549 0.045549106 0.182625
000270 b4 c5 86 3d fe c1 90 bd 36 8a 89 bd 2a f2 df bd
       0.06580678 -0.07068251 -0.06715815 -0.10934861
000280 a3 55 db bb 56 25 42 be 3b 0c 28 3c b9 1e 8e be
       -0.0066935583 -0.18959555 0.010256822 -0.27757815
000290 90 03 e4 3b 13 e8 8c bc fc cc ca 3d e6 58 a6 3d
       0.0069584325 -0.017200505 0.09902379 0.08122425
0002a0 f4 5b 01 bc d8 43 6e 3e 21 57 a9 3e c9 ae 73 bd
       -0.0078954585 0.23268068 0.33074287 -0.05949286
0002b0 d2 b8 9e 3e f2 a6 fd 3d 6b 99 62 3e f0 7e a6 3c
       0.31000382 0.12385358 0.22128837 0.0203242
0002c0 2e f2 8a 3d ce 7b a8 3e 56 73 c5 3d 60 90 46 3d
       0.06784473 0.32906955 0.09641139 0.04847753
0002d0 15 25 41 3d ea 9a 3f bc 55 f6 64 be fa fc bb bc
       0.047154505 -0.011694649 -0.22359593 -0.022947777
0002e0 c8 3f 0c bd 33 f8 92 3d 02 96 a2 3d 79 fb 98 3c
       -0.034240514 0.071762465 0.07938768 0.018674599
0002f0 5c 22 cb 3d 18 db 1b 3e ef 31 75 3d ed 0b 23 3e
       0.09918663 0.15220296 0.059862074 0.15922518
000300 51 0a d2 3d 0b 79 99 3b 47 8f 01 3e c4 02 c8 3d
       0.10255874 0.004683619 0.12652312 0.097661525
000310 17 6c a1 bc aa eb c5 3d 3c 8c 92 3d 40 eb 98 bb
       -0.019704862 0.0966409 0.07155654 -0.004666716
000320 20 0e f3 3c a4 64 fa 3d 02 31 2a 3e ac fb 95 3c
       0.029669821 0.12226227 0.16620257 0.018308483
000330 02 a9 26 3e 7e 66 d1 bd 08 9f 45 3d cf a7 bc bc
       0.16275409 -0.10224627 0.048247367 -0.023029236
000340 04 f1 be 3d f2 52 0c 3e de 71 13 3e 0d 80 11 3e
       0.09323314 0.13703516 0.14398906 0.14209004
000350 e6 b5 cb 3d 06 12 c7 3b ac 02 1d bd 4d 74 9e 3d
       0.09946804 0.0060751466 -0.038332626 0.07737026
000360 4f 59 0e 3b 7c e6 e0 3d 3c 25 0d 3e 38 f2 3d bd
       0.0021720713 0.109814614 0.13783735 -0.046373576
000370 12 90 70 bd 20 b2 27 3d 75 8e 04 3d 6d 53 46 3d
       -0.058731146 0.040941358 0.03236242 0.048419405
000380 d8 86 2b bd 48 49 e7 bd 49 77 aa bb 62 71 a2 bd
       -0.041876644 -0.11293274 -0.005202208 -0.07931782
000390 ca d8 ea 3d a5 0b 0b be ef 79 c2 bc f3 39 35 bc
       0.114671305 -0.13578661 -0.023739783 -0.011061179
0003a0 83 40 c7 bc ed 55 15 3e 68 b5 57 3e 7e 34 00 3e
       -0.024322754 0.1458356 0.21065295 0.12520024
0003b0 58 be 37 3e 50 f3 1c 3d c3 71 43 3e c8 c3 cb 3c
       0.17943704 0.03831798 0.19086365 0.02487363
0003c0 18 69 47 3d 04 5a 3c 3e 11 0b 43 bc d8 73 03 3d
       0.04868421 0.18393713 -0.011904494 0.0320929
0003d0 30 55 11 bc 3c 78 aa 3d b3 16 64 3d e1 c8 38 3c
       -0.008870408 0.08323714 0.05568571 0.011278362
0003e0 c0 38 c7 3b 2b 65 b2 3c 60 ee 01 3d f4 44 8c bd
       0.006079763 0.021776756 0.031721473 -0.06849089
0003f0 9c 16 4e 3d 32 b5 bf 3d 74 a4 0c bd 90 58 80 bd
       0.05031453 0.09360732 -0.034336522 -0.06266892

layer4.bias f4 [4]
000000 d8 11 ed 3d 2f 09 ba 3e 1a 0d f6 3d f8 21 9d 3d
       0.11575669 0.36335132 0.12014218 0.07672495
