reinforcement_learning_DQNSnake/dqn_snake/linear_snake_parameters.pth (torch, 33216 bytes, 8 tensors)

layer1.weight f4 [64, 16]
000000 09 a1 1c be 1c fc 99 be b2 3a a1 be 17 d6 ea 3d
       -0.15295805 -0.30075157 -0.31490093 0.11466616
000010 7d d6 87 bf 27 7e 91 be 10 ec 92 be d7 3d 0e bf
       -1.0612332 -0.2841656 -0.28695726 -0.5556311
000020 59 a9 87 be b0 e5 5d 3f 3c 82 db be 23 90 9b 3e
       -0.2649639 0.866786 -0.42872798 0.30383405
000030 cf 06 02 bf 2d 63 56 be 5e a0 04 3f 9a 97 de bd
       -0.5079164 -0.2093627 0.518072 -0.108687595
000040 ee 18 13 c2 41 0c fa c1 fc 84 da 40 9e fb 8f c1
       -36.774345 -31.255983 6.8287334 -17.99786
000050 85 f2 8a c0 85 ee b0 bf d5 76 91 c0 59 14 7e c0
       -4.3421044 -1.382279 -4.545756 -3.969992
000060 43 41 60 bf 32 14 56 40 ea b2 7e 41 1e 07 66 bf
       -0.8759958 3.3449826 15.91868 -0.8985461
000070 62 ac 1c c0 b1 ba cb 3e 49 52 99 41 24 76 07 3f
       -2.4480214 0.39790872 19.165178 0.52914643
000080 31 96 24 3f 03 54 76 3e b8 a2 98 bf d7 45 89 bf
       0.64291674 0.24055485 -1.1924658 -1.0724438
000090 4b a8 07 3f 3a 37 41 bf 04 50 6b bf 8f ea 13 bf
       0.5299117 -0.75474894 -0.9191897 -0.57779783
0000a0 1a e2 b6 be a7 72 31 bf cf 86 d0 3e f8 95 51 bd
       -0.35719377 -0.6931557 0.4072785 -0.051168412
0000b0 e6 ba cf bd b7 a3 03 bf c1 1b ad 3e 93 bb 75 3e
       -0.1014307 -0.51421684 0.33810237 0.23997335
0000c0 f6 2c f7 3e 64 9d 28 c0 a5 34 1a bf fe a0 a2 3e
       0.4827649 -2.6346064 -0.6023658 0.31763452
0000d0 d7 95 01 bf 92 67 6b bd 02 2e fd bf 23 51 8f bf
       -0.5061926 -0.05747182 -1.9779665 -1.1196636
0000e0 81 03 2b 3f 7f d4 83 bf a6 36 05 40 7e da 82 bf
       0.6680222 -1.0299224 2.0814605 -1.0222929
0000f0 d6 e4 15 3f 0d 25 e9 3f 82 a2 b6 3e 32 26 56 3e
       0.585523 1.8214432 0.3567086 0.20913008
000100 a8 13 39 c1 5a c4 01 c1 91 80 5c bf 80 f6 cb bf
       -11.567299 -8.110437 -0.86133677 -1.5934601
000110 71 40 6d 3f 15 8f 9d 3e 0a 77 18 c0 2a d5 b7 be
       0.92676455 0.30773225 -2.3822656 -0.3590482
000120 b3 f7 08 bf 61 c5 40 40 5d 70 51 41 50 a9 8f c0
       -0.5350296 3.012047 13.089932 -4.489418
000130 78 9a b7 3e c0 e3 bc 3f 0d d0 79 bf ae c6 ed c0
       0.35860038 1.4757004 -0.97583085 -7.430503
000140 66 a3 3d c1 92 60 59 41 28 db 7d c0 3f e0 d8 3f
       -11.852392 13.586077 -3.9665012 1.6943434
000150 52 29 0d bf 3e e6 2a be 17 7a a6 bf 7b aa 5a c0
       -0.55141175 -0.16689393 -1.3006009 -3.4166553
000160 ca e1 77 c0 d5 06 e4 bf c0 1c 5c 41 9d 95 b0 bf
       -3.873156 -1.7814585 13.757019 -1.3795658
000170 9d 63 63 be 9d 3d 90 c1 07 1a 34 c0 28 cc dd bf
       -0.22205968 -18.030085 -2.8140886 -1.7327929
000180 a6 d4 34 bf 36 45 69 c0 de 29 7f c0 bd 81 23 c0
       -0.70636976 -3.6448493 -3.9869304 -2.5547936
000190 ea f6 df bf eb 38 1b c0 56 13 85 bf 4f 41 23 3c
       -1.7497227 -2.425349 -1.0396526 0.009964301
0001a0 01 66 08 c0 b2 b3 02 bf 34 70 a4 3f 54 0c 27 3f
       -2.1312258 -0.51055443 1.2846742 0.65253186
0001b0 af 62 01 40 fb 06 5f 40 99 8f ed 3f 85 eb 7a bf
       2.0216482 3.484801 1.8559448 -0.98015624
0001c0 7a a0 06 bf 75 3a 04 3f 9f 82 93 bf 11 97 4f bf
       -0.5258862 0.516517 -1.1524237 -0.81089884
0001d0 41 17 08 bf 09 a7 eb be 9e bc 64 bf 50 5d 5d bf
       -0.5316048 -0.46025875 -0.89350307 -0.8647051
0001e0 d2 e4 14 bf 02 01 60 bf c9 ca 0a 3b a1 37 7d 3e
       -0.5816165 -0.8750154 0.0021177998 0.24728252
0001f0 55 1c f2 bc 6b 3c 81 3f b0 d1 3d 3e e8 9d a4 3e
       -0.029554525 1.0096563 0.1853702 0.32151723
000200 a4 0a 17 bf a8 87 b1 bd 93 73 5b be 21 8f e6 be
       -0.5900061 -0.086684525 -0.21430807 -0.45031074
000210 3a 6b 40 bf 18 d1 9e be bc 17 32 bf df 71 c4 be
       -0.75163615 -0.310189 -0.69567466 -0.38368127
000220 23 9d c9 be b8 e8 f2 be 78 47 07 bf 6e b2 8e 3f
       -0.39377698 -0.47443175 -0.5284343 1.1148202
000230 9f ab 3a bf 06 36 74 3f 6e 08 d6 bd 97 65 61 bf
       -0.72918123 0.95394933 -0.104508266 -0.8804564
000240 7b a5 d0 be 3c cc 42 3f 24 06 e7 bf 79 74 63 bf
       -0.40751252 0.76092887 -1.8048749 -0.888496
000250 c4 93 ee bf 33 59 8b bf a7 3f 68 bf 3a 5e 5d bf
       -1.8638844 -1.0886596 -0.90722126 -0.86471903
000260 fb 9c 46 bf 2a 11 87 3f c2 78 c3 bd ca 60 8d bf
       -0.77583283 1.0552113 -0.09544517 -1.1045163
000270 d9 98 5a bf 21 2b a5 3f 2a 20 f2 3d a4 0f 37 bf
       -0.85389477 1.2903787 0.11822541 -0.7150824
000280 6a 0b 70 bf ea b8 77 3f 1d 14 a8 3e 82 9f be 3d
       -0.93767416 0.9676653 0.32827845 0.093077675
000290 d5 4d 88 3e 52 de 91 bf 94 f0 ba be 43 32 53 be
       0.2662188 -1.1395972 -0.36511672 -0.20624642
0002a0 9c 16 a0 be ad f7 87 3f 16 dc 82 bd 92 06 e4 bf
       -0.3126725 1.062246 -0.06389634 -1.7814505
0002b0 04 8a 1f bf 9b b8 ae 3f 63 79 2e 3f 43 03 6a bd
       -0.6231997 1.3650087 0.6815397 -0.057132017
0002c0 11 b3 43 bf 63 ba 40 bf 5a ef b2 bd 14 0d 5a bf
       -0.7644511 -0.75284404 -0.08737059 -0.85176206
0002d0 b1 89 03 be 79 2a 40 bd 79 6f 06 bf 2a cc 94 be
       -0.12845494 -0.046915505 -0.52513844 -0.29062015
0002e0 36 4a 5a be bf 35 ca 3e 1e fa 0b 3e 3d 46 d5 bd
       -0.21317372 0.3949413 0.13669631 -0.104137875
0002f0 ba 87 59 3e 2b 30 21 bf af 76 a0 be 62 87 02 be
       0.21243182 -0.62964123 -0.31340548 -0.12746957
000300 91 4d 1b 3f 71 a6 33 bf 58 74 17 bf b0 c7 08 c0
       0.6066523 -0.70175844 -0.591619 -2.137188
000310 f8 de 2a bf db a3 5a bf b5 7a 2d bf c5 b7 f1 bf
       -0.66746473 -0.85406274 -0.6776536 -1.8884207
000320 4d c2 e6 3f 9f 8d 10 3f 3b a1 02 bf 8a 10 b4 be
       1.8028046 0.56466097 -0.5102727 -0.35168868
000330 f3 8d 00 3f c4 49 17 bf db 1b 98 be f1 85 0a bf
       0.502166 -0.5909693 -0.29708752 -0.5411063
000340 29 82 20 3d 66 df aa be 58 42 93 bf c0 8d 7b bf
       0.03918663 -0.33373564 -1.1504622 -0.9826317
000350 ca c7 bb be c9 2a 2c be ec 0f 96 3d 30 e1 63 bf
       -0.36675864 -0.16813196 0.073272556 -0.89015484
000360 a9 13 03 3f ce 04 c3 3c e5 5b 49 be 1b 6c 6c be
       0.51201874 0.023806002 -0.19663961 -0.23088114
000370 a1 e5 01 3f 21 b5 5b 3e 8e 5f 8d be 3d 33 40 bf
       0.5074101 0.21455814 -0.27611965 -0.75078183
000380 5c 70 7e bf 9e 5e 29 bf 96 72 f3 bf bc 7b 53 c0
       -0.99390197 -0.6616 -1.9019344 -3.3044271
000390 ef 10 de 3d b5 02 14 3e b9 c2 3e bf 16 5a e7 bf
       0.108430736 0.14454158 -0.74515873 -1.8074367
0003a0 2f fd c1 3f 99 86 89 be f3 e8 01 c0 d0 01 a5 3f
       1.515539 -0.26860502 -2.029843 1.2891178
0003b0 73 3a 10 3f 14 28 1b bf 4a 13 3f bf 15 8c 68 3f
       0.56339186 -0.6060803 -0.7463881 0.9083875
0003c0 aa aa e7 bf 35 ef b1 bf 27 ab 26 bf a9 92 b4 bf
       -1.8098958 -1.3901125 -0.6510491 -1.4107257
0003d0 b1 30 7b bf ec d9 d9 be ae da 16 3f 91 b3 09 bf
       -0.9812117 -0.42549074 0.5892743 -0.5378962
0003e0 6a a2 6d 3f a2 5a 32 bd 6c 88 5a bf f8 dd 2a 3d
       0.9282595 -0.043543465 -0.85364413 0.041715592
0003f0 a6 8e 96 3e e3 02 1a bd 7f 32 8c 3e 0c c8 89 bf
       0.29405707 -0.03760041 0.27382275 -1.0764174

layer1.bias f4 [64]
000000 ac ae 80 bf eb 93 be bf b2 2e cc bf b7 bc 88 c0
       -1.0053306 -1.4888891 -1.595175 -4.2730365
000010 b2 3d 11 c1 8c 3e 8b c0 56 59 d5 c0 f9 b1 d3 bf
       -9.077562 -4.351385 -6.6671553 -1.6538688
000020 a8 fb a8 bf 65 55 19 c0 6e 57 98 c0 2c bb c7 be
       -1.3201799 -2.395837 -4.7606726 -0.39009988
000030 b3 2b 04 c0 94 f3 65 bf 90 74 22 c0 a9 77 62 bf
       -2.0651672 -0.89824796 -2.5383644 -0.88463837
000040 fa ea 25 bf 91 00 00 bf 72 2c 49 c0 5d 3f bd c0
       -0.6481167 -0.50000864 -3.1433377 -5.913985
000050 9c a5 b1 bf df 24 ba bf 0e 29 9b c0 de 95 b0 bf
       -1.3878665 -1.4542502 -4.8487616 -1.3795736
000060 dd ad 46 bf b0 08 18 c0 06 a1 db c0 9c ef 41 c0
       -0.77609044 -2.3755302 -6.863406 -3.0302496
000070 fb be 17 c0 b9 70 28 c1 bb 6b 93 bf d0 97 83 c0
       -2.3710315 -10.52752 -1.1517252 -4.112282
000080 51 1d 43 c0 60 20 94 c0 14 c9 81 bf 0e 6a 99 c0
       -3.0486643 -4.628952 -1.0139489 -4.794196
000090 98 83 69 bf d1 5a e1 bf b9 1e d1 be f4 e6 24 bf
       -0.9121642 -1.760584 -0.40843752 -0.64414907
0000a0 64 1c ad c0 ec db 41 c0 7f a2 49 bf 11 38 16 c0
       -5.4097157 -3.029048 -0.78763574 -2.347172
0000b0 55 a9 2d bf 89 a5 ae bf c5 e3 95 bf 7a f5 44 bf
       -0.67836505 -1.3644267 -1.1710135 -0.7693707
0000c0 e5 86 3e bf a4 ed 8b c0 07 9d 71 bf dd 97 a2 bf
       -0.7442458 -4.372759 -0.9438023 -1.2702595
0000d0 d9 2b 67 c0 d6 57 c9 bf 59 fd 5e bf 38 19 15 c0
       -3.6120512 -1.572993 -0.8710533 -2.3296642
0000e0 d8 8f d2 bf b5 de 65 bf 3f fe 62 bf 9c d7 b3 bf
       -1.6450148 -0.8979295 -0.886692 -1.4050174
0000f0 3a 0f 39 be c3 1c 53 bf 63 b3 32 c0 a4 5d 9e bf
       -0.18072215 -0.8246576 -2.792199 -1.2372327

layer2.weight f4 [64, 64]
000000 b0 98 b3 3d 8c b9 b2 bf f9 bc e9 bf 8c 33 51 3e
       0.08769357 -1.3962874 -1.8260795 0.2042982
000010 f5 17 10 c0 b7 10 63 c0 67 77 0d c0 07 05 0c 40
       -2.2514622 -3.5478952 -2.2104127 2.1878068
000020 56 1d a8 3e 3f 7c 37 c0 4b b6 cc bf 3b df ba 3d
       0.32834882 -2.8669584 -1.5993131 0.09124609
000030 a0 ea 27 3d 70 d8 59 bf 18 ef f9 3f 28 86 b9 3f
       0.04099524 -0.8509588 1.9526091 1.4494066
000040 92 5e 99 3f 4c 4e bd bd ae 58 5d c0 29 86 37 3f
       1.1981986 -0.092434496 -3.4585376 0.7168909
000050 0b 9f bd 3f 2c c0 18 3f 2d 32 76 c0 a1 ee 19 40
       1.4814161 0.5966823 -3.8468125 2.4051898
000060 d0 35 d5 c0 d7 a4 f0 bf de 6d 94 be b8 cd 9d bf
       -6.662819 -1.8800305 -0.28990072 -1.2328405
000070 dc 34 55 be 54 e5 7b c0 0a 88 d9 3e ad b1 6c c0
       -0.20820946 -3.935872 0.42486602 -3.6983445
000080 e9 01 51 3e 56 71 71 3f 2b de 09 be 0a 73 9c 3f
       0.20410885 0.9431356 -0.13463657 1.2222607
000090 cf 5e 79 3f 2c c5 e3 bf f4 23 25 be 86 00 9d bf
       0.9741029 -1.7794547 -0.16126996 -1.2265785
0000a0 35 b5 52 c0 fa 36 02 40 66 64 47 be 91 3d 86 bf
       -3.29231 2.0346055 -0.19471893 -1.0487539
0000b0 73 03 52 bf e3 ff 5f 40 e3 f8 83 3f f2 c6 c6 3f
       -0.82036513 3.499993 1.0310329 1.5529463
0000c0 02 bb 81 be a7 2c 72 c0 b6 87 46 bf 6e dc 1a bf
       -0.25337988 -3.7839754 -0.7755083 -0.604926
0000d0 e7 f9 0b bf 85 91 5d 3f 7a 76 d8 be ff d8 72 3f
       -0.54678196 0.8655017 -0.4227789 0.9486236
0000e0 4b d6 ad 3f 7e 53 ca bf 75 f2 4a 3f 3e 5a 92 3e
       1.3581022 -1.580673 0.7927621 0.28584474
0000f0 1d 5b cc 3e 71 06 77 c1 30 ab 1c be aa 94 ab bf
       0.39913264 -15.439073 -0.15299678 -1.3404744
000100 d7 8b 50 3e 58 35 9a c0 38 18 a2 bf 30 c1 17 3f
       0.20365845 -4.8190117 -1.2663641 0.59279156
000110 a9 45 a1 c0 72 5e 12 3d e3 7f a5 40 43 82 39 3e
       -5.0397534 0.0357346 5.171861 0.18116097
000120 05 23 85 3f c6 ad cb bf 82 d4 bc bf 62 f6 54 3f
       1.0401312 -1.5912406 -1.4752352 0.8318845
000130 7f 3f 50 3e 84 10 56 bf 9d 8d 69 bf 0a 50 cc bf
       0.20336722 -0.8361895 -0.9123171 -1.5961926
000140 70 fd ea 3d a0 9d e0 3e 9a d0 7c bf b2 b8 32 c0
       0.114741206 0.43870258 -0.987558 -2.792523
000150 49 fe fc 3c ad 46 2c 3f cf 05 e0 3f 65 fc 63 bf
       0.030882971 0.6729534 1.7501773 -0.89057
000160 48 02 03 c0 f2 52 29 3e d4 12 d2 bd 22 68 a1 3f
       -2.0470142 0.16535547 -0.102574974 1.2609904
000170 80 4b 66 3e b4 69 b3 bf 10 89 fc be e5 c8 74 c0
       0.22489738 -1.4016633 -0.4932332 -3.8247616
000180 17 6e 00 40 8a e7 9b 3f 0d 89 de 3e 20 3f 28 40
       2.0067194 1.2180035 0.43463936 2.6288528
000190 6e 77 51 3e 4c fa 17 bf ff fa 2c bf a5 da 1f bd
       0.20455715 -0.593663 -0.6757049 -0.039026875
0001a0 98 c0 a0 c0 5a db 5d bf e0 a4 a4 3e 07 7d e8 be
       -5.02351 -0.8666283 0.3215704 -0.45407888
0001b0 9a 31 84 bf 6b cb 37 3f 27 4a f7 3d 51 85 d8 3e
       -1.0327637 0.71794766 0.1207469 0.42289212
0001c0 f7 45 e7 bd 74 65 4f c0 38 af 2e be 2d 01 85 3f
       -0.112926416 -3.2405672 -0.17059028 1.0390984
0001d0 b9 f2 72 3d 82 88 f1 be 18 82 98 3b 28 a3 25 bf
       0.05931351 -0.4717446 0.0046541803 -0.6470208
0001e0 9e 9f 3f bf 88 14 b1 be e3 9b ce be f5 c1 f7 be
       -0.7485293 -0.34585977 -0.40353307 -0.48390165
0001f0 c7 d3 ef 3d 24 26 34 c0 34 3f ed bf d2 27 a3 3c
       0.11710315 -2.814828 -1.8534913 0.019916449
000200 7f 67 59 3e 31 13 c0 c0 30 06 21 bf c0 e9 61 40
       0.21230887 -6.0023427 -0.62900066 3.529892
000210 2d f0 e2 c0 70 8e 3d c1 85 e5 40 c0 90 40 2a 40
       -7.0918183 -11.847275 -3.0140088 2.6601906
000220 9a d2 8d bd 57 df c2 3f bd 65 53 3f 3b e3 5f bd
       -0.06924935 1.5224408 0.82577115 -0.054660063
000230 01 ff 7a c0 6b 59 8c c0 fc f2 27 c0 98 75 b4 bf
       -3.9218142 -4.3859153 -2.6242056 -1.4098387
000240 2a df 3f bd 98 fc 46 3f 35 b7 d3 be 46 56 cd 3e
       -0.046843685 0.7772918 -0.41350713 0.40104884
000250 40 c0 ab bf 02 34 b1 bf af 7c 25 bf e8 90 b0 3e
       -1.3418045 -1.3843997 -0.6464338 0.34485555
000260 24 5c ab bf 31 54 09 c0 49 14 3c 3f d9 ee 61 c0
       -1.3387494 -2.1457636 0.7346845 -3.530203
000270 73 1d 92 bf 1f b6 84 c0 85 9e a6 bf 8e 27 13 c0
       -1.1415237 -4.1472316 -1.3017126 -2.2992892
000280 e5 4e f9 bd 65 8a 1a c0 19 e7 0d bf 72 dd 3f bf
       -0.12173251 -2.414697 -0.5543075 -0.74947274
000290 e6 fc 85 bf cb bc 32 be ca 80 87 be df ac d6 bd
       -1.0467803 -0.17454831 -0.26465446 -0.10482191
0002a0 c2 d3 cc 3e e9 bb 82 bf 5e b2 eb be 85 6e 0a be
       0.40005308 -1.0213596 -0.4603452 -0.13518722
0002b0 33 d0 12 3f 0d 24 10 c0 e7 49 a2 bf a0 63 f1 bf
       0.57348937 -2.2522004 -1.2678803 -1.8858528
0002c0 86 15 c2 bf 28 d8 24 c0 b1 8a a4 3f 8e f2 76 3d
       -1.5162818 -2.5756931 1.2854825 0.060289912
0002d0 50 82 1f 3f dc 0b 73 bf af 15 78 c0 d0 9d de bf
       0.62308216 -0.9493997 -3.8763235 -1.739191
0002e0 20 96 59 bf 9e df 0e c0 e7 6a e2 be 4c 85 a1 3d
       -0.849947 -2.2323985 -0.44222185 0.078867525
0002f0 cd 19 12 be 52 01 03 c1 1b 0a 0c 3f 87 4a 47 3f
       -0.14267655 -8.187822 0.5470292 0.77848095
000300 c8 81 40 be df 10 42 c0 c3 bb 49 be 9c c0 87 3f
       -0.18799508 -3.0322797 -0.19700532 1.0605655
000310 c0 be 61 c0 13 a8 b4 3e 69 88 f1 40 7d 0e aa 3f
       -3.5272675 0.3528448 7.5479016 1.3285671
000320 57 fe b3 bd 26 0f bc bf 9d 37 bf be 87 19 73 3c
       -0.08788746 -1.4692123 -0.37347117 0.014837629
000330 33 fd e5 3e df 3e 08 bd 0d 3c 5e c0 87 39 82 be
       0.44919738 -0.033263084 -3.4724152 -0.25434515
000340 4a 6d b1 3c cb b3 e9 bc cc ea 89 3f e5 35 19 3f
       0.021658558 -0.028528115 1.0774779 0.5984786
000350 b7 12 44 bf af 06 1d bf 49 fa 26 40 46 9e 53 bd
       -0.76591057 -0.61338323 2.6090262 -0.051664613
000360 e3 32 2b c0 21 31 f1 be 33 43 19 be cc 4d 96 c0
       -2.6749809 -0.47107795 -0.1496704 -4.6969967
000370 b4 f2 0c c0 7c e1 5a bf 88 7c 1e be 6b 80 5f bf
       -2.2023134 -0.8550031 -0.15477192 -0.87305325
000380 c6 93 96 c0 33 e1 0d 3f 5b d4 92 bd 0e 16 26 c0
       -4.7055387 0.5542175 -0.0716941 -2.595096
000390 c4 57 1f be 22 cd 8a 3f 13 76 41 3d fe 8c 70 3d
       -0.15560824 1.0843852 0.047231745 0.05872821
0003a0 fb be 9c bb 96 15 ad 3f 9c b4 cf bc 4e d8 43 3e
       -0.004783509 1.3522213 -0.025354676 0.19125482
0003b0 0e 42 98 3c d7 e7 0f c0 8f 56 2f be a9 cb ef bf
       0.018586185 -2.2485254 -0.17122863 -1.8734027
0003c0 d9 20 0a 3f 38 f1 24 3e 62 e3 87 3e dd f8 a4 be
       0.5395637 0.16107643 0.26540667 -0.32221118
0003d0 f4 22 f9 3e ea 97 78 be a7 05 15 bd 0d 00 c6 bf
       0.4865948 -0.242767 -0.036382344 -1.5468765
0003e0 58 41 da 3e 6a af 57 3d 79 98 1c bd 11 a0 92 3e
       0.42627978 0.052657522 -0.038231347 0.28637746
0003f0 5d 6e 8b bd 1d e8 d2 c0 91 63 22 bd da ee 9f bd
       -0.068081595 -6.590834 -0.039645735 -0.07809229

layer2.bias f4 [64]
000000 d0 fe bc be 2f 0a b4 c0 9e a1 c2 c0 07 85 bf c0
       -0.36913157 -5.626243 -6.0822287 -5.9849887
000010 e1 60 e4 ba c5 03 3a bb bd 80 a7 bf 78 7e 8d 40
       -0.0017423892 -0.0028383594 -1.3086163 4.421688
000020 df cc 9c c0 52 c5 4e c0 78 13 60 c0 24 5c 84 c0
       -4.9000087 -3.2307935 -3.5011883 -4.1362476
000030 6b 98 d0 bf 49 88 90 40 c5 bf 8a c0 02 b2 74 bf
       -1.6296514 4.5166364 -4.3359094 -0.9558412
000040 09 78 82 c0 01 49 0f be a6 09 ec be ed 47 7c c0
       -4.0771527 -0.13992693 -0.4610111 -3.94189
000050 ab a3 03 c1 36 e8 a2 c0 48 39 31 bf c9 c0 34 3f
       -8.227458 -5.090846 -0.6922803 0.70606667
000060 2a 23 85 bf 23 6a 0b c0 f9 61 b4 bf a9 70 ae be
       -1.0401356 -2.178353 -1.4092399 -0.34070328
000070 7d 7a c9 3f 1f 51 38 c0 ce 0f 85 be f5 97 a0 bf
       1.5740505 -2.8799512 -0.2598862 -1.2546374
000080 c4 f8 29 c1 d4 b0 fd be 19 64 5b c0 b4 77 f1 be
       -10.623234 -0.49548972 -3.4279845 -0.4716164
000090 98 90 b0 c0 b9 81 70 bf 7d 44 7c c1 fd c7 15 40
       -5.5176506 -0.9394794 -15.766721 2.3403313
0000a0 dd 6a 98 c0 8f 29 02 c0 a5 12 da c0 ce 93 e2 c0
       -4.763045 -2.0337865 -6.814776 -7.0805426
0000b0 21 e3 5d c0 be 20 85 c0 f8 66 af bf f9 03 38 c0
       -3.4669878 -4.160247 -1.3703299 -2.8752425
0000c0 b8 8f 21 c0 99 fb 20 c1 b8 67 c5 c0 eb 18 92 c0
       -2.524397 -10.061425 -6.168911 -4.5655417
0000d0 c6 7c 82 be bc 0a 5a c0 ef 93 09 c0 a9 5b 66 c0
       -0.2548582 -3.4069052 -2.1496542 -3.5993445
0000e0 6a cc ba be ec db 4b c0 cc eb ca c0 2e d1 92 bf
       -0.3648408 -3.185298 -6.341284 -1.1470087
0000f0 86 21 27 c0 f6 45 74 bf df b9 92 c0 9d 9e b2 c0
       -2.611421 -0.9541925 -4.5851893 -5.581862

layer3.weight f4 [32, 64]
000000 47 df 91 40 e8 a0 1b c0 9a 4b ab bf 14 47 f7 bf
       4.5585055 -2.431696 -1.3382447 -1.9318566
000010 f6 aa 33 c0 2c 56 e2 bf 5d b6 bd bf 23 39 4a c1
       -2.8073096 -1.7682548 -1.4821278 -12.638949
000020 98 a5 a1 bf bc 73 8a bf 70 1a 47 bf 79 84 8e 3f
       -1.262866 -1.0816569 -0.77774715 1.1134177
000030 84 19 5f 3e a9 b0 da c0 6a 92 40 bf 71 fd 38 bf
       0.21787077 -6.834065 -0.7522341 -0.7226172
000040 49 0a 85 bf 54 87 d3 bf ea de 86 be fe da cd be
       -1.0393764 -1.6525674 -0.26341945 -0.4020614
000050 6c 53 e2 bf 01 74 4f c0 3e 20 d4 bf 7b ac 10 c1
       -1.7681708 -3.2414553 -1.657234 -9.0421095
000060 a5 fe 00 c0 7d 92 33 3f d9 ec bc 3f ac 42 5e bf
       -2.0155423 0.701454 1.475978 -0.86820483
000070 94 84 07 3e 13 9e 06 40 94 ee b7 3f 49 13 81 bf
       0.13234168 2.103398 1.4369683 -1.008401
000080 d6 c8 f4 bf 69 a5 74 3e b8 95 a5 3e 0c 56 2d 3f
       -1.912379 0.23891224 0.3234079 0.6770942
000090 12 72 91 c0 4c 5f c6 bd 77 15 f2 bf d3 28 20 c0
       -4.5451746 -0.09686145 -1.89128 -2.5024917
0000a0 ad 4e 32 bf 4b f9 17 bf 6d 20 2e c1 ae cd ff 3f
       -0.696513 -0.59364766 -10.882916 1.9984643
0000b0 5c d8 2a bd 01 05 d3 3e 9c 51 4c be 47 cf 95 3f
       -0.041710243 0.41214755 -0.19953007 1.1703881
0000c0 e5 b7 55 bf e1 2e 5a bf 35 4d d6 c1 5a fe 5a bf
       -0.83483726 -0.8522778 -26.787699 -0.8554436
0000d0 bb d3 0a be 66 28 5a 3e 76 bf 23 bf 26 34 b1 3f
       -0.13557331 0.21304473 -0.6396402 1.384404
0000e0 7c d2 86 3d 31 09 73 c0 9c 7f 0c c0 b6 41 3e 3f
       0.065831155 -3.797436 -2.1952887 0.74319017
0000f0 a1 22 0a c0 be 4c a3 be dc b0 d1 bf df a1 4c c0
       -2.1583636 -0.31894487 -1.6382098 -3.1973798
000100 df 8a de bf 6e 3e 02 40 c5 82 22 bf e7 fc 45 bf
       -1.738613 2.0350604 -0.6348079 -0.77339023
000110 0a ff e3 be 5d 53 b7 bf 04 e8 74 bf cc 68 d4 c0
       -0.44530517 -1.4322315 -0.9566653 -6.6377926
000120 d6 c1 6b be 02 a8 ae bd 7e db 16 c0 46 43 91 3d
       -0.23023161 -0.08528139 -2.3571467 0.070929095
000130 9d 93 15 40 a8 c1 1e c0 1c e1 32 c0 71 a5 38 c0
       2.3371346 -2.4805698 -2.7949896 -2.8850977
000140 f3 89 fe 3b 54 78 a3 3f 15 91 78 bf c6 39 0d bd
       0.0077679097 1.2771096 -0.9709638 -0.034478925
000150 df 5a 95 bf b0 9f 4f c0 54 7f 4b 3e f2 70 14 3e
       -1.1668357 -3.2441216 0.1987279 0.1449621
000160 d2 e6 5c be 87 ee 6c c0 e6 3c 14 3f 3e fe c0 3f
       -0.21572426 -3.7020586 0.57905424 1.5077589
000170 76 96 72 c0 29 c4 3d bf 30 1e 21 40 ca 2f d9 3e
       -3.7904334 -0.7412744 2.5174675 0.42419273
000180 40 7a 64 bf b3 07 f8 3e cf 50 86 3f 21 e9 5c 3e
       -0.8924904 0.48443374 1.0493411 0.21573307
000190 d1 45 89 c0 4d 7e ac bd 2c ab d3 bf bc 5d fe be
       -4.2897725 -0.084225275 -1.6536613 -0.4968089
0001a0 c6 99 81 be 9d 06 b3 be e2 5e 84 bd c7 77 1c bf
       -0.25312632 -0.34965983 -0.0646341 -0.61120266
0001b0 15 7f 89 be 27 f9 77 3f 7a 2d 60 bf 37 e8 2b 3f
       -0.26854768 0.9686455 -0.8756939 0.67151207
0001c0 df b7 3d 3e b3 45 7c bf 53 01 ac bf 31 03 a1 3e
       0.18527173 -0.9854385 -1.3437904 0.31447747
0001d0 6e 78 c2 bd f3 c3 0a c0 8c 2f 99 be c3 57 f2 bf
       -0.094956264 -2.1682098 -0.29919088 -1.8933033
0001e0 c8 ea 8c bd 88 eb 91 c0 6d 06 e5 bf 94 7b 3b bf
       -0.068807185 -4.5600014 -1.7892586 -0.7323544
0001f0 f1 f2 b4 bf 41 f9 30 bd 5e 30 19 3e 78 ec b7 3f
       -1.413664 -0.043206457 0.14959857 1.436904
000200 6e eb 20 3f 21 6e 8f 3e 5f 7e 35 c0 46 e7 02 40
       0.6285924 0.2801371 -2.835838 2.0453658
000210 9d 89 3b be f6 a5 99 3f 90 2b 16 c0 a1 1d 7c c0
       -0.18314214 1.2003772 -2.3464088 -3.9393084
000220 8a 34 35 bf 2e 57 6a bf 9e 94 37 3e 2e 46 f7 bf
       -0.70783293 -0.91539276 0.17927787 -1.9318292
000230 24 28 0f be ef e4 1f 3e 81 2d b4 be 9a 56 3c bd
       -0.13980156 0.15614675 -0.35190967 -0.045981027
000240 93 ab 33 bf f5 75 94 c0 46 fc 90 3f 2c 72 bc bf
       -0.70183676 -4.639399 1.1326988 -1.4722342
000250 6a e3 28 c0 c4 40 b8 be 4d d3 df bd ed c4 20 3e
       -2.6388803 -0.35986912 -0.10928974 0.15700121
000260 32 91 b1 3f e9 c3 de 3d 0b 3f 7c 3f 37 ec ed bf
       1.3872435 0.10877211 0.98533696 -1.8587712
000270 d3 91 50 be 1a 5c a1 3f b7 46 1f bf e2 30 d0 3f
       -0.20368128 1.2606232 -0.6221728 1.6264918
000280 f7 78 72 c0 bb d2 c1 bf f1 03 0d 40 da 10 35 bf
       -3.788633 -1.5142435 2.2033656 -0.7072884
000290 02 e2 1e 40 16 ff d6 3e 89 6e 3a c0 64 d0 f7 bf
       2.4825444 0.4199149 -2.9129965 -1.9360471
0002a0 13 9b 44 3f 49 46 87 3f 02 de 87 c0 b2 99 64 3e
       0.76799124 1.0568324 -4.2458506 0.22324255
0002b0 d1 81 27 bf 9e c5 0a be 87 1e ef 3d 09 3e 70 c0
       -0.6543246 -0.13551947 0.116757445 -3.7537863
0002c0 38 a2 0b 40 13 10 3a bf f8 ef 2b c1 3e 2f 54 bf
       2.181776 -0.7268078 -10.746086 -0.82884586
0002d0 0b 4f 61 3b 70 22 a9 bf cb 19 62 bf a6 9e 94 bf
       0.0034379389 -1.3213634 -0.88320607 -1.1610916
0002e0 50 0b 56 bd 68 44 ba bf 9c 8c 32 bf 95 79 c8 3e
       -0.052256882 -1.4552126 -0.697458 0.3915526
0002f0 e0 fe 77 3f 0b db 53 bf f4 db 5e be 45 78 41 3f
       0.96873283 -0.8275611 -0.21763593 0.7557414
000300 87 db 01 bf 7d 7a ab bf e6 d1 e8 be 4d 45 6a bf
       -0.507256 -1.3396755 -0.4547264 -0.91511995
000310 ef 91 25 c0 c3 d2 5e bf b1 24 c3 bf 79 bc 04 c1
       -2.587032 -0.87040347 -1.5245572 -8.296014
000320 b9 3b b4 3e bc ac 4d 3e c9 9b bf bf 7d 44 c8 be
       0.35201815 0.20085424 -1.4969417 -0.39114752
000330 1c ab 8f 3f 68 07 91 c0 34 37 ae bf f6 28 93 bf
       1.1224093 -4.532154 -1.3610597 -1.1496875
000340 6b 30 14 3d 92 27 d3 bf 93 5c 0d bf 1d 26 aa bf
       0.036178987 -1.6496451 -0.5521938 -1.3292881
000350 94 5b 76 bf a8 c8 7a 3e 24 0d 18 c0 85 b8 aa bf
       -0.9623349 0.24490607 -2.375802 -1.3337561
000360 5a f5 08 c0 a9 16 9b 3e e8 9f 1d bf 6d bd 09 c0
       -2.139975 0.30290726 -0.6157212 -2.1521866
000370 ae 78 fe bf 6e 8a 19 3e 9f 72 06 c0 06 c2 18 3f
       -1.9880579 0.14994213 -2.100746 0.59671056
000380 1a 9b 66 3e 14 67 cb c0 51 39 c9 be a5 d6 fd bd
       0.22520104 -6.356333 -0.3930154 -0.12394456
000390 8d e9 39 bf 4f 27 c4 be ca f5 17 c0 9d 88 a7 3d
       -0.72621995 -0.3831124 -2.3743768 0.08180354
0003a0 2e 01 18 3f ae 8e 5a bf 7c 1e 1d 3d 0b 7e 78 bf
       0.593768 -0.8537396 0.03835915 -0.97067326
0003b0 36 39 a3 3e 52 93 6b 3d b0 35 32 3e ab ef 66 3f
       0.31879586 0.057513542 0.17403293 0.90209454
0003c0 1c cb 98 be cf b3 ea c0 60 35 54 c0 fe 87 2c c0
       -0.2984246 -7.3344493 -3.3157578 -2.6958003
0003d0 ad e4 24 bd b1 5f 6f bf 72 9b 07 c0 65 af 99 bf
       -0.040257145 -0.9350539 -2.1188626 -1.2006651
0003e0 e2 58 73 bd 4a e5 c0 c0 01 c1 8d 3e 76 96 67 be
       -0.059410937 -6.0279894 0.27686313 -0.2261599
0003f0 74 fe bf bf 88 2e 06 bf fe 22 83 be 93 38 dc 3f
       -1.4999528 -0.5241475 -0.25612634 1.7204765

layer3.bias f4 [32]
000000 d6 f8 1e bf ff 53 f1 c0 88 98 0b c1 2b de 9f c0
       -0.62098444 -7.5415034 -8.724739 -4.99587
000010 d0 ba 01 c0 42 e8 83 c0 21 7b b3 c0 81 a7 80 40
       -2.0270271 -4.122102 -5.6087804 4.0204473
000020 d7 40 d7 c0 15 d2 63 ba c3 59 bf 40 d3 3f fe be
       -6.726665 -0.00086906675 5.9797072 -0.4965807
000030 67 da 41 c0 e2 1c e4 c0 3a 08 a7 c0 0d 9e 45 c0
       -3.0289552 -7.1285257 -5.219754 -3.0877717
000040 76 f0 59 bf 43 02 82 40 f2 55 18 c1 d8 6b 3b c0
       -0.8513254 4.062776 -9.520983 -2.9284573
000050 f6 e0 3f c0 49 f4 dd 40 81 8c 94 c0 b9 11 c2 c0
       -2.9981055 6.93607 -4.6421514 -6.0646634
000060 78 8b d6 bf 02 a1 e0 40 fb ff 23 41 a0 84 94 be
       -1.6761312 7.0196543 10.249995 -0.29007435
000070 68 a7 1c c0 d5 52 1c c0 41 90 da be 1c a4 f8 c0
       -2.4477177 -2.4425557 -0.42688182 -7.770033

layer4.weight f4 [4, 32]
000000 a1 55 0a c1 9b 23 88 c0 0c 51 ac c0 c4 8f 7c 40
       -8.6459055 -4.2543464 -5.3848934 3.9462748
000010 af 84 09 41 8e c9 cf 3f f6 6a 46 c1 fa 9f f8 c1
       8.594893 1.6233385 -12.4011135 -31.078114
000020 23 60 d6 c1 de dc 9a 3f 8a cb c4 41 04 47 1b c2
       -26.796942 1.2098653 24.599384 -38.81935
000030 cb ff 3e bf 17 55 98 41 a0 96 d8 bc 28 11 68 c1
       -0.7460906 19.041548 -0.026439011 -14.504189
000040 11 2d 24 bf 79 8b 98 c1 a5 b5 9a 40 dd 07 01 c0
       -0.64131266 -19.068102 4.8346734 -2.016105
000050 3c f9 b9 40 90 c8 e3 c1 76 e9 6c c1 d6 58 50 40
       5.811674 -28.47293 -14.806997 3.255422
000060 12 66 b9 c0 ce 85 b2 c1 d8 1b 80 40 9d bb aa c1
       -5.7937098 -22.315334 4.003399 -21.341608
000070 39 62 8d c0 91 da c7 3f b0 bd dd bc ff 7e 09 c1
       -4.41824 1.5613576 -0.02706799 -8.593505
000080 88 e4 72 c1 5d b4 37 c1 82 e4 a1 40 b7 8b b0 40
       -15.180794 -11.481534 5.059144 5.517055
000090 9c 84 04 41 eb 69 bc 40 f9 26 94 c0 84 57 30 c0
       8.282375 5.8879294 -4.6297574 -2.7553415
0000a0 0c 56 50 c1 7a 31 81 41 3c 3f 16 41 3c 1b 53 c1
       -13.021008 16.149158 9.390438 -13.194149
0000b0 3d ce 45 40 6f 6d 93 41 5c 61 b7 40 ec cf 61 42
       3.0907128 18.428434 5.7306347 56.45305
0000c0 83 1e 89 40 f4 c1 11 40 35 b4 53 c1 77 af 75 bb
       4.2849746 2.277463 -13.231496 -0.0037488618
0000d0 48 c4 04 41 79 11 e3 bf 96 a4 90 c0 a0 54 b6 c1
       8.29792 -1.7739707 -4.520091 -22.79132
0000e0 5b f8 b1 c0 93 32 1d 40 59 74 59 40 ad a8 e3 c0
       -5.561567 2.4562118 3.3977263 -7.1143403
0000f0 aa f3 00 41 00 d6 26 c0 11 5b 4e 3d d3 b5 0c c0
       8.059488 -2.6068115 0.050379816 -2.1985977
000100 6d 06 b2 40 30 af d9 3f 20 d4 9a c0 6d 73 8d be
       5.5632844 1.7006588 -4.838394 -0.27627125
000110 9e 1d 5f 41 42 e0 f1 40 a9 6a e7 40 be 0b fa bf
       13.944731 7.558625 7.23177 -1.9534833
000120 b7 19 2c c0 b6 79 cc be c5 68 56 41 84 dc 94 bf
       -2.6890695 -0.39936608 13.4005785 -1.1629796
000130 bc 81 de bf 11 77 6e 41 e0 7b 3b c1 a1 eb 53 c1
       -1.7383342 14.904069 -11.717743 -13.245027
000140 9d 35 f8 40 b0 bb c0 40 dd f2 4a c1 34 a6 db c0
       7.7565446 6.022911 -12.684293 -6.8640385
000150 e7 68 3d 41 44 c9 34 c1 f7 3f 08 c1 5c 05 fc c0
       11.838111 -11.299137 -8.515616 -7.875654
000160 fa 64 9d c0 ef fd 1b 40 61 0f 4d 40 04 ac 5a c1
       -4.9185762 2.4373739 3.2040637 -13.666996
000170 a3 7e eb 40 bb 0b 08 c1 8a f0 fe bc fa 71 10 41
       7.3592086 -8.502864 -0.031120557 9.027826
000180 c4 70 f1 40 39 7b 8f 40 9f 59 19 41 ec d3 3c c1
       7.5450153 4.483792 9.58438 -11.801739
000190 58 66 f0 41 c8 d5 9a 40 9a db e8 40 9b bf c7 c1
       30.049973 4.8385963 7.276807 -24.968557
0001a0 4f fe 8c c0 a5 cb 36 41 c8 08 5d 41 78 8b 59 c1
       -4.4060435 11.424718 13.814644 -13.59655
0001b0 ec 45 e9 c0 08 e8 8b c1 66 f5 82 c0 8d e0 10 42
       -7.2897854 -17.488297 -4.092456 36.219288
0001c0 c0 76 9e c0 f6 d1 85 bf 01 ff 3c c1 da b4 0c c0
       -4.951996 -1.04547 -11.812257 -2.1985383
0001d0 27 5a 89 40 f1 39 b4 40 de 5b 6f c1 85 15 a9 be
       4.292255 5.632073 -14.9599285 -0.3302423
0001e0 b1 01 aa 3d cb 76 38 40 b9 8a 43 40 ff e7 bd c0
       0.08301104 2.8822505 3.055342 -5.93457
0001f0 e3 ea 13 40 eb 71 36 c1 c3 7e 1d 3c b4 1a bc 40
       2.3112113 -11.402812 0.009612742 5.8782597

layer4.bias f4 [4]
000000 ef fa c5 40 47 a0 ae 41 5e 69 da 41 53 fb ae 41
       6.1868815 21.82826 27.301449 21.872717
